name: "ResNet-50"
layer {
  name: 'input-data'
  type: 'Python'
  top: 'data'
  top: 'im_info'
  top: 'gt_boxes'
  python_param {
    module: 'roi_data_layer.layer'
    layer: 'RoIDataLayer'
    param_str: "'num_classes': 201"
  }
}
layer {
  name: "conv1"
  bottom: "data"
  top: "conv1"
  type: "Convolution"
  param { lr_mult: 1 decay_mult: 1 }
  param { lr_mult: 2 decay_mult: 0 }
  convolution_param {
    num_output: 64
    kernel_size: 7
    pad: 3
    stride: 2
    weight_filler { type: "msra" std: 0.010 }
    bias_filler { type: "constant" value: 0 }
  }
}
layer {
  name: "bn_conv1"
  bottom: "conv1"
  top: "conv1"
  type: "BatchNorm"
  batch_norm_param {
    use_global_stats: false
  }
  param { lr_mult: 0 }
  param { lr_mult: 0 }
  param { lr_mult: 0 }
}
layer {
  name: "scale_conv1"
  bottom: "conv1"
  top: "conv1"
  type: "Scale"
  scale_param {
    bias_term: true
  }
  param { lr_mult: 1 }
}
layer {
  name: "conv1_relu"
  bottom: "conv1"
  top: "conv1"
  type: "ReLU"
}
layer {
  name: "pool1"
  bottom: "conv1"
  top: "pool1"
  type: "Pooling"
  pooling_param {
    pool: MAX
    kernel_size: 3
    stride: 2
  }
}
layer {
  name: "res2a_branch2a"
  bottom: "pool1"
  top: "res2a_branch2a"
  type: "Convolution"
  param { lr_mult: 1 decay_mult: 1 }
  convolution_param {
    num_output: 64
    kernel_size: 1
    pad: 0
    stride: 1
    bias_term: false
    weight_filler { type: "msra" std: 0.010 }
  }
}
layer {
  name: "bn2a_branch2a"
  bottom: "res2a_branch2a"
  top: "res2a_branch2a"
  type: "BatchNorm"
  batch_norm_param {
    use_global_stats: false
  }
  param { lr_mult: 0 }
  param { lr_mult: 0 }
  param { lr_mult: 0 }
}
layer {
  name: "scale2a_branch2a"
  bottom: "res2a_branch2a"
  top: "res2a_branch2a"
  type: "Scale"
  scale_param {
    bias_term: true
  }
  param { lr_mult: 1 }
}
layer {
  name: "res2a_branch2a_relu"
  bottom: "res2a_branch2a"
  top: "res2a_branch2a"
  type: "ReLU"
}
layer {
  name: "res2a_branch2b"
  bottom: "res2a_branch2a"
  top: "res2a_branch2b"
  type: "Convolution"
  param { lr_mult: 1 decay_mult: 1 }
  convolution_param {
    num_output: 64
    kernel_size: 3
    pad: 1
    stride: 1
    bias_term: false
    weight_filler { type: "msra" std: 0.010 }
  }
}
layer {
  name: "bn2a_branch2b"
  bottom: "res2a_branch2b"
  top: "res2a_branch2b"
  type: "BatchNorm"
  batch_norm_param {
    use_global_stats: false
  }
  param { lr_mult: 0 }
  param { lr_mult: 0 }
  param { lr_mult: 0 }
}
layer {
  name: "scale2a_branch2b"
  bottom: "res2a_branch2b"
  top: "res2a_branch2b"
  type: "Scale"
  scale_param {
    bias_term: true
  }
  param { lr_mult: 1 }
}
layer {
  name: "res2a_branch2b_relu"
  bottom: "res2a_branch2b"
  top: "res2a_branch2b"
  type: "ReLU"
}
layer {
  name: "res2a_branch2c"
  bottom: "res2a_branch2b"
  top: "res2a_branch2c"
  type: "Convolution"
  param { lr_mult: 1 decay_mult: 1 }
  convolution_param {
    num_output: 256
    kernel_size: 1
    pad: 0
    stride: 1
    bias_term: false
    weight_filler { type: "msra" std: 0.010 }
  }
}
layer {
  name: "bn2a_branch2c"
  bottom: "res2a_branch2c"
  top: "res2a_branch2c"
  type: "BatchNorm"
  batch_norm_param {
    use_global_stats: false
  }
  param { lr_mult: 0 }
  param { lr_mult: 0 }
  param { lr_mult: 0 }
}
layer {
  name: "scale2a_branch2c"
  bottom: "res2a_branch2c"
  top: "res2a_branch2c"
  type: "Scale"
  scale_param {
    bias_term: true
  }
  param { lr_mult: 1 }
}
layer {
  name: "res2a_branch1"
  bottom: "pool1"
  top: "res2a_branch1"
  type: "Convolution"
  param { lr_mult: 1 decay_mult: 1 }
  convolution_param {
    num_output: 256
    kernel_size: 1
    pad: 0
    stride: 1
    bias_term: false
    weight_filler { type: "msra" std: 0.010 }
  }
}
layer {
  name: "bn2a_branch1"
  bottom: "res2a_branch1"
  top: "res2a_branch1"
  type: "BatchNorm"
  batch_norm_param {
    use_global_stats: false
  }
  param { lr_mult: 0 }
  param { lr_mult: 0 }
  param { lr_mult: 0 }
}
layer {
  name: "scale2a_branch1"
  bottom: "res2a_branch1"
  top: "res2a_branch1"
  type: "Scale"
  scale_param {
    bias_term: true
  }
  param { lr_mult: 1 }
}
layer {
	name: "res2a"
	bottom: "res2a_branch1"
	bottom: "res2a_branch2c"
	top: "res2a"
	type: "Eltwise"
}
layer {
  name: "res2a_relu"
  bottom: "res2a"
  top: "res2a"
  type: "ReLU"
}
layer {
  name: "res2b_branch2a"
  bottom: "res2a"
  top: "res2b_branch2a"
  type: "Convolution"
  param { lr_mult: 1 decay_mult: 1 }
  convolution_param {
    num_output: 64
    kernel_size: 1
    pad: 0
    stride: 1
    bias_term: false
    weight_filler { type: "msra" std: 0.010 }
  }
}
layer {
  name: "bn2b_branch2a"
  bottom: "res2b_branch2a"
  top: "res2b_branch2a"
  type: "BatchNorm"
  batch_norm_param {
    use_global_stats: false
  }
  param { lr_mult: 0 }
  param { lr_mult: 0 }
  param { lr_mult: 0 }
}
layer {
  name: "scale2b_branch2a"
  bottom: "res2b_branch2a"
  top: "res2b_branch2a"
  type: "Scale"
  scale_param {
    bias_term: true
  }
  param { lr_mult: 1 }
}
layer {
  name: "res2b_branch2a_relu"
  bottom: "res2b_branch2a"
  top: "res2b_branch2a"
  type: "ReLU"
}
layer {
  name: "res2b_branch2b"
  bottom: "res2b_branch2a"
  top: "res2b_branch2b"
  type: "Convolution"
  param { lr_mult: 1 decay_mult: 1 }
  convolution_param {
    num_output: 64
    kernel_size: 3
    pad: 1
    stride: 1
    bias_term: false
    weight_filler { type: "msra" std: 0.010 }
  }
}
layer {
  name: "bn2b_branch2b"
  bottom: "res2b_branch2b"
  top: "res2b_branch2b"
  type: "BatchNorm"
  batch_norm_param {
    use_global_stats: false
  }
  param { lr_mult: 0 }
  param { lr_mult: 0 }
  param { lr_mult: 0 }
}
layer {
  name: "scale2b_branch2b"
  bottom: "res2b_branch2b"
  top: "res2b_branch2b"
  type: "Scale"
  scale_param {
    bias_term: true
  }
  param { lr_mult: 1 }
}
layer {
  name: "res2b_branch2b_relu"
  bottom: "res2b_branch2b"
  top: "res2b_branch2b"
  type: "ReLU"
}
layer {
  name: "res2b_branch2c"
  bottom: "res2b_branch2b"
  top: "res2b_branch2c"
  type: "Convolution"
  param { lr_mult: 1 decay_mult: 1 }
  convolution_param {
    num_output: 256
    kernel_size: 1
    pad: 0
    stride: 1
    bias_term: false
    weight_filler { type: "msra" std: 0.010 }
  }
}
layer {
  name: "bn2b_branch2c"
  bottom: "res2b_branch2c"
  top: "res2b_branch2c"
  type: "BatchNorm"
  batch_norm_param {
    use_global_stats: false
  }
  param { lr_mult: 0 }
  param { lr_mult: 0 }
  param { lr_mult: 0 }
}
layer {
  name: "scale2b_branch2c"
  bottom: "res2b_branch2c"
  top: "res2b_branch2c"
  type: "Scale"
  scale_param {
    bias_term: true
  }
  param { lr_mult: 1 }
}
layer {
	name: "res2b"
	bottom: "res2a"
	bottom: "res2b_branch2c"
	top: "res2b"
	type: "Eltwise"
}
layer {
  name: "res2b_relu"
  bottom: "res2b"
  top: "res2b"
  type: "ReLU"
}
layer {
  name: "res2c_branch2a"
  bottom: "res2b"
  top: "res2c_branch2a"
  type: "Convolution"
  param { lr_mult: 1 decay_mult: 1 }
  convolution_param {
    num_output: 64
    kernel_size: 1
    pad: 0
    stride: 1
    bias_term: false
    weight_filler { type: "msra" std: 0.010 }
  }
}
layer {
  name: "bn2c_branch2a"
  bottom: "res2c_branch2a"
  top: "res2c_branch2a"
  type: "BatchNorm"
  batch_norm_param {
    use_global_stats: false
  }
  param { lr_mult: 0 }
  param { lr_mult: 0 }
  param { lr_mult: 0 }
}
layer {
  name: "scale2c_branch2a"
  bottom: "res2c_branch2a"
  top: "res2c_branch2a"
  type: "Scale"
  scale_param {
    bias_term: true
  }
  param { lr_mult: 1 }
}
layer {
  name: "res2c_branch2a_relu"
  bottom: "res2c_branch2a"
  top: "res2c_branch2a"
  type: "ReLU"
}
layer {
  name: "res2c_branch2b"
  bottom: "res2c_branch2a"
  top: "res2c_branch2b"
  type: "Convolution"
  param { lr_mult: 1 decay_mult: 1 }
  convolution_param {
    num_output: 64
    kernel_size: 3
    pad: 1
    stride: 1
    bias_term: false
    weight_filler { type: "msra" std: 0.010 }
  }
}
layer {
  name: "bn2c_branch2b"
  bottom: "res2c_branch2b"
  top: "res2c_branch2b"
  type: "BatchNorm"
  batch_norm_param {
    use_global_stats: false
  }
  param { lr_mult: 0 }
  param { lr_mult: 0 }
  param { lr_mult: 0 }
}
layer {
  name: "scale2c_branch2b"
  bottom: "res2c_branch2b"
  top: "res2c_branch2b"
  type: "Scale"
  scale_param {
    bias_term: true
  }
  param { lr_mult: 1 }
}
layer {
  name: "res2c_branch2b_relu"
  bottom: "res2c_branch2b"
  top: "res2c_branch2b"
  type: "ReLU"
}
layer {
  name: "res2c_branch2c"
  bottom: "res2c_branch2b"
  top: "res2c_branch2c"
  type: "Convolution"
  param { lr_mult: 1 decay_mult: 1 }
  convolution_param {
    num_output: 256
    kernel_size: 1
    pad: 0
    stride: 1
    bias_term: false
    weight_filler { type: "msra" std: 0.010 }
  }
}
layer {
  name: "bn2c_branch2c"
  bottom: "res2c_branch2c"
  top: "res2c_branch2c"
  type: "BatchNorm"
  batch_norm_param {
    use_global_stats: false
  }
  param { lr_mult: 0 }
  param { lr_mult: 0 }
  param { lr_mult: 0 }
}
layer {
  name: "scale2c_branch2c"
  bottom: "res2c_branch2c"
  top: "res2c_branch2c"
  type: "Scale"
  scale_param {
    bias_term: true
  }
  param { lr_mult: 1 }
}
layer {
	name: "res2c"
	bottom: "res2b"
	bottom: "res2c_branch2c"
	top: "res2c"
	type: "Eltwise"
}
layer {
  name: "res2c_relu"
  bottom: "res2c"
  top: "res2c"
  type: "ReLU"
}
layer {
  name: "res3a_branch2a"
  bottom: "res2c"
  top: "res3a_branch2a"
  type: "Convolution"
  param { lr_mult: 1 decay_mult: 1 }
  convolution_param {
    num_output: 128
    kernel_size: 1
    pad: 0
    stride: 2
    bias_term: false
    weight_filler { type: "msra" std: 0.010 }
  }
}
layer {
  name: "bn3a_branch2a"
  bottom: "res3a_branch2a"
  top: "res3a_branch2a"
  type: "BatchNorm"
  batch_norm_param {
    use_global_stats: false
  }
  param { lr_mult: 0 }
  param { lr_mult: 0 }
  param { lr_mult: 0 }
}
layer {
  name: "scale3a_branch2a"
  bottom: "res3a_branch2a"
  top: "res3a_branch2a"
  type: "Scale"
  scale_param {
    bias_term: true
  }
  param { lr_mult: 1 }
}
layer {
  name: "res3a_branch2a_relu"
  bottom: "res3a_branch2a"
  top: "res3a_branch2a"
  type: "ReLU"
}
layer {
  name: "res3a_branch2b"
  bottom: "res3a_branch2a"
  top: "res3a_branch2b"
  type: "Convolution"
  param { lr_mult: 1 decay_mult: 1 }
  convolution_param {
    num_output: 128
    kernel_size: 3
    pad: 1
    stride: 1
    bias_term: false
    weight_filler { type: "msra" std: 0.010 }
  }
}
layer {
  name: "bn3a_branch2b"
  bottom: "res3a_branch2b"
  top: "res3a_branch2b"
  type: "BatchNorm"
  batch_norm_param {
    use_global_stats: false
  }
  param { lr_mult: 0 }
  param { lr_mult: 0 }
  param { lr_mult: 0 }
}
layer {
  name: "scale3a_branch2b"
  bottom: "res3a_branch2b"
  top: "res3a_branch2b"
  type: "Scale"
  scale_param {
    bias_term: true
  }
  param { lr_mult: 1 }
}
layer {
  name: "res3a_branch2b_relu"
  bottom: "res3a_branch2b"
  top: "res3a_branch2b"
  type: "ReLU"
}
layer {
  name: "res3a_branch2c"
  bottom: "res3a_branch2b"
  top: "res3a_branch2c"
  type: "Convolution"
  param { lr_mult: 1 decay_mult: 1 }
  convolution_param {
    num_output: 512
    kernel_size: 1
    pad: 0
    stride: 1
    bias_term: false
    weight_filler { type: "msra" std: 0.010 }
  }
}
layer {
  name: "bn3a_branch2c"
  bottom: "res3a_branch2c"
  top: "res3a_branch2c"
  type: "BatchNorm"
  batch_norm_param {
    use_global_stats: false
  }
  param { lr_mult: 0 }
  param { lr_mult: 0 }
  param { lr_mult: 0 }
}
layer {
  name: "scale3a_branch2c"
  bottom: "res3a_branch2c"
  top: "res3a_branch2c"
  type: "Scale"
  scale_param {
    bias_term: true
  }
  param { lr_mult: 1 }
}
layer {
  name: "res3a_branch1"
  bottom: "res2c"
  top: "res3a_branch1"
  type: "Convolution"
  param { lr_mult: 1 decay_mult: 1 }
  convolution_param {
    num_output: 512
    kernel_size: 1
    pad: 0
    stride: 2
    bias_term: false
    weight_filler { type: "msra" std: 0.010 }
  }
}
layer {
  name: "bn3a_branch1"
  bottom: "res3a_branch1"
  top: "res3a_branch1"
  type: "BatchNorm"
  batch_norm_param {
    use_global_stats: false
  }
  param { lr_mult: 0 }
  param { lr_mult: 0 }
  param { lr_mult: 0 }
}
layer {
  name: "scale3a_branch1"
  bottom: "res3a_branch1"
  top: "res3a_branch1"
  type: "Scale"
  scale_param {
    bias_term: true
  }
  param { lr_mult: 1 }
}
layer {
	name: "res3a"
	bottom: "res3a_branch1"
	bottom: "res3a_branch2c"
	top: "res3a"
	type: "Eltwise"
}
layer {
  name: "res3a_relu"
  bottom: "res3a"
  top: "res3a"
  type: "ReLU"
}
layer {
  name: "res3b_branch2a"
  bottom: "res3a"
  top: "res3b_branch2a"
  type: "Convolution"
  param { lr_mult: 1 decay_mult: 1 }
  convolution_param {
    num_output: 128
    kernel_size: 1
    pad: 0
    stride: 1
    bias_term: false
    weight_filler { type: "msra" std: 0.010 }
  }
}
layer {
  name: "bn3b_branch2a"
  bottom: "res3b_branch2a"
  top: "res3b_branch2a"
  type: "BatchNorm"
  batch_norm_param {
    use_global_stats: false
  }
  param { lr_mult: 0 }
  param { lr_mult: 0 }
  param { lr_mult: 0 }
}
layer {
  name: "scale3b_branch2a"
  bottom: "res3b_branch2a"
  top: "res3b_branch2a"
  type: "Scale"
  scale_param {
    bias_term: true
  }
  param { lr_mult: 1 }
}
layer {
  name: "res3b_branch2a_relu"
  bottom: "res3b_branch2a"
  top: "res3b_branch2a"
  type: "ReLU"
}
layer {
  name: "res3b_branch2b"
  bottom: "res3b_branch2a"
  top: "res3b_branch2b"
  type: "Convolution"
  param { lr_mult: 1 decay_mult: 1 }
  convolution_param {
    num_output: 128
    kernel_size: 3
    pad: 1
    stride: 1
    bias_term: false
    weight_filler { type: "msra" std: 0.010 }
  }
}
layer {
  name: "bn3b_branch2b"
  bottom: "res3b_branch2b"
  top: "res3b_branch2b"
  type: "BatchNorm"
  batch_norm_param {
    use_global_stats: false
  }
  param { lr_mult: 0 }
  param { lr_mult: 0 }
  param { lr_mult: 0 }
}
layer {
  name: "scale3b_branch2b"
  bottom: "res3b_branch2b"
  top: "res3b_branch2b"
  type: "Scale"
  scale_param {
    bias_term: true
  }
  param { lr_mult: 1 }
}
layer {
  name: "res3b_branch2b_relu"
  bottom: "res3b_branch2b"
  top: "res3b_branch2b"
  type: "ReLU"
}
layer {
  name: "res3b_branch2c"
  bottom: "res3b_branch2b"
  top: "res3b_branch2c"
  type: "Convolution"
  param { lr_mult: 1 decay_mult: 1 }
  convolution_param {
    num_output: 512
    kernel_size: 1
    pad: 0
    stride: 1
    bias_term: false
    weight_filler { type: "msra" std: 0.010 }
  }
}
layer {
  name: "bn3b_branch2c"
  bottom: "res3b_branch2c"
  top: "res3b_branch2c"
  type: "BatchNorm"
  batch_norm_param {
    use_global_stats: false
  }
  param { lr_mult: 0 }
  param { lr_mult: 0 }
  param { lr_mult: 0 }
}
layer {
  name: "scale3b_branch2c"
  bottom: "res3b_branch2c"
  top: "res3b_branch2c"
  type: "Scale"
  scale_param {
    bias_term: true
  }
  param { lr_mult: 1 }
}
layer {
	name: "res3b"
	bottom: "res3a"
	bottom: "res3b_branch2c"
	top: "res3b"
	type: "Eltwise"
}
layer {
  name: "res3b_relu"
  bottom: "res3b"
  top: "res3b"
  type: "ReLU"
}
layer {
  name: "res3c_branch2a"
  bottom: "res3b"
  top: "res3c_branch2a"
  type: "Convolution"
  param { lr_mult: 1 decay_mult: 1 }
  convolution_param {
    num_output: 128
    kernel_size: 1
    pad: 0
    stride: 1
    bias_term: false
    weight_filler { type: "msra" std: 0.010 }
  }
}
layer {
  name: "bn3c_branch2a"
  bottom: "res3c_branch2a"
  top: "res3c_branch2a"
  type: "BatchNorm"
  batch_norm_param {
    use_global_stats: false
  }
  param { lr_mult: 0 }
  param { lr_mult: 0 }
  param { lr_mult: 0 }
}
layer {
  name: "scale3c_branch2a"
  bottom: "res3c_branch2a"
  top: "res3c_branch2a"
  type: "Scale"
  scale_param {
    bias_term: true
  }
  param { lr_mult: 1 }
}
layer {
  name: "res3c_branch2a_relu"
  bottom: "res3c_branch2a"
  top: "res3c_branch2a"
  type: "ReLU"
}
layer {
  name: "res3c_branch2b"
  bottom: "res3c_branch2a"
  top: "res3c_branch2b"
  type: "Convolution"
  param { lr_mult: 1 decay_mult: 1 }
  convolution_param {
    num_output: 128
    kernel_size: 3
    pad: 1
    stride: 1
    bias_term: false
    weight_filler { type: "msra" std: 0.010 }
  }
}
layer {
  name: "bn3c_branch2b"
  bottom: "res3c_branch2b"
  top: "res3c_branch2b"
  type: "BatchNorm"
  batch_norm_param {
    use_global_stats: false
  }
  param { lr_mult: 0 }
  param { lr_mult: 0 }
  param { lr_mult: 0 }
}
layer {
  name: "scale3c_branch2b"
  bottom: "res3c_branch2b"
  top: "res3c_branch2b"
  type: "Scale"
  scale_param {
    bias_term: true
  }
  param { lr_mult: 1 }
}
layer {
  name: "res3c_branch2b_relu"
  bottom: "res3c_branch2b"
  top: "res3c_branch2b"
  type: "ReLU"
}
layer {
  name: "res3c_branch2c"
  bottom: "res3c_branch2b"
  top: "res3c_branch2c"
  type: "Convolution"
  param { lr_mult: 1 decay_mult: 1 }
  convolution_param {
    num_output: 512
    kernel_size: 1
    pad: 0
    stride: 1
    bias_term: false
    weight_filler { type: "msra" std: 0.010 }
  }
}
layer {
  name: "bn3c_branch2c"
  bottom: "res3c_branch2c"
  top: "res3c_branch2c"
  type: "BatchNorm"
  batch_norm_param {
    use_global_stats: false
  }
  param { lr_mult: 0 }
  param { lr_mult: 0 }
  param { lr_mult: 0 }
}
layer {
  name: "scale3c_branch2c"
  bottom: "res3c_branch2c"
  top: "res3c_branch2c"
  type: "Scale"
  scale_param {
    bias_term: true
  }
  param { lr_mult: 1 }
}
layer {
	name: "res3c"
	bottom: "res3b"
	bottom: "res3c_branch2c"
	top: "res3c"
	type: "Eltwise"
}
layer {
  name: "res3c_relu"
  bottom: "res3c"
  top: "res3c"
  type: "ReLU"
}
layer {
  name: "res3d_branch2a"
  bottom: "res3c"
  top: "res3d_branch2a"
  type: "Convolution"
  param { lr_mult: 1 decay_mult: 1 }
  convolution_param {
    num_output: 128
    kernel_size: 1
    pad: 0
    stride: 1
    bias_term: false
    weight_filler { type: "msra" std: 0.010 }
  }
}
layer {
  name: "bn3d_branch2a"
  bottom: "res3d_branch2a"
  top: "res3d_branch2a"
  type: "BatchNorm"
  batch_norm_param {
    use_global_stats: false
  }
  param { lr_mult: 0 }
  param { lr_mult: 0 }
  param { lr_mult: 0 }
}
layer {
  name: "scale3d_branch2a"
  bottom: "res3d_branch2a"
  top: "res3d_branch2a"
  type: "Scale"
  scale_param {
    bias_term: true
  }
  param { lr_mult: 1 }
}
layer {
  name: "res3d_branch2a_relu"
  bottom: "res3d_branch2a"
  top: "res3d_branch2a"
  type: "ReLU"
}
layer {
  name: "res3d_branch2b"
  bottom: "res3d_branch2a"
  top: "res3d_branch2b"
  type: "Convolution"
  param { lr_mult: 1 decay_mult: 1 }
  convolution_param {
    num_output: 128
    kernel_size: 3
    pad: 1
    stride: 1
    bias_term: false
    weight_filler { type: "msra" std: 0.010 }
  }
}
layer {
  name: "bn3d_branch2b"
  bottom: "res3d_branch2b"
  top: "res3d_branch2b"
  type: "BatchNorm"
  batch_norm_param {
    use_global_stats: false
  }
  param { lr_mult: 0 }
  param { lr_mult: 0 }
  param { lr_mult: 0 }
}
layer {
  name: "scale3d_branch2b"
  bottom: "res3d_branch2b"
  top: "res3d_branch2b"
  type: "Scale"
  scale_param {
    bias_term: true
  }
  param { lr_mult: 1 }
}
layer {
  name: "res3d_branch2b_relu"
  bottom: "res3d_branch2b"
  top: "res3d_branch2b"
  type: "ReLU"
}
layer {
  name: "res3d_branch2c"
  bottom: "res3d_branch2b"
  top: "res3d_branch2c"
  type: "Convolution"
  param { lr_mult: 1 decay_mult: 1 }
  convolution_param {
    num_output: 512
    kernel_size: 1
    pad: 0
    stride: 1
    bias_term: false
    weight_filler { type: "msra" std: 0.010 }
  }
}
layer {
  name: "bn3d_branch2c"
  bottom: "res3d_branch2c"
  top: "res3d_branch2c"
  type: "BatchNorm"
  batch_norm_param {
    use_global_stats: false
  }
  param { lr_mult: 0 }
  param { lr_mult: 0 }
  param { lr_mult: 0 }
}
layer {
  name: "scale3d_branch2c"
  bottom: "res3d_branch2c"
  top: "res3d_branch2c"
  type: "Scale"
  scale_param {
    bias_term: true
  }
  param { lr_mult: 1 }
}
layer {
	name: "res3d"
	bottom: "res3c"
	bottom: "res3d_branch2c"
	top: "res3d"
	type: "Eltwise"
}
layer {
  name: "res3d_relu"
  bottom: "res3d"
  top: "res3d"
  type: "ReLU"
}
layer {
  name: "res4a_branch2a"
  bottom: "res3d"
  top: "res4a_branch2a"
  type: "Convolution"
  param { lr_mult: 1 decay_mult: 1 }
  convolution_param {
    num_output: 256
    kernel_size: 1
    pad: 0
    stride: 2
    bias_term: false
    weight_filler { type: "msra" std: 0.010 }
  }
}
layer {
  name: "bn4a_branch2a"
  bottom: "res4a_branch2a"
  top: "res4a_branch2a"
  type: "BatchNorm"
  batch_norm_param {
    use_global_stats: false
  }
  param { lr_mult: 0 }
  param { lr_mult: 0 }
  param { lr_mult: 0 }
}
layer {
  name: "scale4a_branch2a"
  bottom: "res4a_branch2a"
  top: "res4a_branch2a"
  type: "Scale"
  scale_param {
    bias_term: true
  }
  param { lr_mult: 1 }
}
layer {
  name: "res4a_branch2a_relu"
  bottom: "res4a_branch2a"
  top: "res4a_branch2a"
  type: "ReLU"
}
layer {
  name: "res4a_branch2b"
  bottom: "res4a_branch2a"
  top: "res4a_branch2b"
  type: "Convolution"
  param { lr_mult: 1 decay_mult: 1 }
  convolution_param {
    num_output: 256
    kernel_size: 3
    pad: 1
    stride: 1
    bias_term: false
    weight_filler { type: "msra" std: 0.010 }
  }
}
layer {
  name: "bn4a_branch2b"
  bottom: "res4a_branch2b"
  top: "res4a_branch2b"
  type: "BatchNorm"
  batch_norm_param {
    use_global_stats: false
  }
  param { lr_mult: 0 }
  param { lr_mult: 0 }
  param { lr_mult: 0 }
}
layer {
  name: "scale4a_branch2b"
  bottom: "res4a_branch2b"
  top: "res4a_branch2b"
  type: "Scale"
  scale_param {
    bias_term: true
  }
  param { lr_mult: 1 }
}
layer {
  name: "res4a_branch2b_relu"
  bottom: "res4a_branch2b"
  top: "res4a_branch2b"
  type: "ReLU"
}
layer {
  name: "res4a_branch2c"
  bottom: "res4a_branch2b"
  top: "res4a_branch2c"
  type: "Convolution"
  param { lr_mult: 1 decay_mult: 1 }
  convolution_param {
    num_output: 1024
    kernel_size: 1
    pad: 0
    stride: 1
    bias_term: false
    weight_filler { type: "msra" std: 0.010 }
  }
}
layer {
  name: "bn4a_branch2c"
  bottom: "res4a_branch2c"
  top: "res4a_branch2c"
  type: "BatchNorm"
  batch_norm_param {
    use_global_stats: false
  }
  param { lr_mult: 0 }
  param { lr_mult: 0 }
  param { lr_mult: 0 }
}
layer {
  name: "scale4a_branch2c"
  bottom: "res4a_branch2c"
  top: "res4a_branch2c"
  type: "Scale"
  scale_param {
    bias_term: true
  }
  param { lr_mult: 1 }
}
layer {
  name: "res4a_branch1"
  bottom: "res3d"
  top: "res4a_branch1"
  type: "Convolution"
  param { lr_mult: 1 decay_mult: 1 }
  convolution_param {
    num_output: 1024
    kernel_size: 1
    pad: 0
    stride: 2
    bias_term: false
    weight_filler { type: "msra" std: 0.010 }
  }
}
layer {
  name: "bn4a_branch1"
  bottom: "res4a_branch1"
  top: "res4a_branch1"
  type: "BatchNorm"
  batch_norm_param {
    use_global_stats: false
  }
  param { lr_mult: 0 }
  param { lr_mult: 0 }
  param { lr_mult: 0 }
}
layer {
  name: "scale4a_branch1"
  bottom: "res4a_branch1"
  top: "res4a_branch1"
  type: "Scale"
  scale_param {
    bias_term: true
  }
  param { lr_mult: 1 }
}
layer {
	name: "res4a"
	bottom: "res4a_branch1"
	bottom: "res4a_branch2c"
	top: "res4a"
	type: "Eltwise"
}
layer {
  name: "res4a_relu"
  bottom: "res4a"
  top: "res4a"
  type: "ReLU"
}
layer {
  name: "res4b_branch2a"
  bottom: "res4a"
  top: "res4b_branch2a"
  type: "Convolution"
  param { lr_mult: 1 decay_mult: 1 }
  convolution_param {
    num_output: 256
    kernel_size: 1
    pad: 0
    stride: 1
    bias_term: false
    weight_filler { type: "msra" std: 0.010 }
  }
}
layer {
  name: "bn4b_branch2a"
  bottom: "res4b_branch2a"
  top: "res4b_branch2a"
  type: "BatchNorm"
  batch_norm_param {
    use_global_stats: false
  }
  param { lr_mult: 0 }
  param { lr_mult: 0 }
  param { lr_mult: 0 }
}
layer {
  name: "scale4b_branch2a"
  bottom: "res4b_branch2a"
  top: "res4b_branch2a"
  type: "Scale"
  scale_param {
    bias_term: true
  }
  param { lr_mult: 1 }
}
layer {
  name: "res4b_branch2a_relu"
  bottom: "res4b_branch2a"
  top: "res4b_branch2a"
  type: "ReLU"
}
layer {
  name: "res4b_branch2b"
  bottom: "res4b_branch2a"
  top: "res4b_branch2b"
  type: "Convolution"
  param { lr_mult: 1 decay_mult: 1 }
  convolution_param {
    num_output: 256
    kernel_size: 3
    pad: 1
    stride: 1
    bias_term: false
    weight_filler { type: "msra" std: 0.010 }
  }
}
layer {
  name: "bn4b_branch2b"
  bottom: "res4b_branch2b"
  top: "res4b_branch2b"
  type: "BatchNorm"
  batch_norm_param {
    use_global_stats: false
  }
  param { lr_mult: 0 }
  param { lr_mult: 0 }
  param { lr_mult: 0 }
}
layer {
  name: "scale4b_branch2b"
  bottom: "res4b_branch2b"
  top: "res4b_branch2b"
  type: "Scale"
  scale_param {
    bias_term: true
  }
  param { lr_mult: 1 }
}
layer {
  name: "res4b_branch2b_relu"
  bottom: "res4b_branch2b"
  top: "res4b_branch2b"
  type: "ReLU"
}
layer {
  name: "res4b_branch2c"
  bottom: "res4b_branch2b"
  top: "res4b_branch2c"
  type: "Convolution"
  param { lr_mult: 1 decay_mult: 1 }
  convolution_param {
    num_output: 1024
    kernel_size: 1
    pad: 0
    stride: 1
    bias_term: false
    weight_filler { type: "msra" std: 0.010 }
  }
}
layer {
  name: "bn4b_branch2c"
  bottom: "res4b_branch2c"
  top: "res4b_branch2c"
  type: "BatchNorm"
  batch_norm_param {
    use_global_stats: false
  }
  param { lr_mult: 0 }
  param { lr_mult: 0 }
  param { lr_mult: 0 }
}
layer {
  name: "scale4b_branch2c"
  bottom: "res4b_branch2c"
  top: "res4b_branch2c"
  type: "Scale"
  scale_param {
    bias_term: true
  }
  param { lr_mult: 1 }
}
layer {
	name: "res4b"
	bottom: "res4a"
	bottom: "res4b_branch2c"
	top: "res4b"
	type: "Eltwise"
}
layer {
  name: "res4b_relu"
  bottom: "res4b"
  top: "res4b"
  type: "ReLU"
}
layer {
  name: "res4c_branch2a"
  bottom: "res4b"
  top: "res4c_branch2a"
  type: "Convolution"
  param { lr_mult: 1 decay_mult: 1 }
  convolution_param {
    num_output: 256
    kernel_size: 1
    pad: 0
    stride: 1
    bias_term: false
    weight_filler { type: "msra" std: 0.010 }
  }
}
layer {
  name: "bn4c_branch2a"
  bottom: "res4c_branch2a"
  top: "res4c_branch2a"
  type: "BatchNorm"
  batch_norm_param {
    use_global_stats: false
  }
  param { lr_mult: 0 }
  param { lr_mult: 0 }
  param { lr_mult: 0 }
}
layer {
  name: "scale4c_branch2a"
  bottom: "res4c_branch2a"
  top: "res4c_branch2a"
  type: "Scale"
  scale_param {
    bias_term: true
  }
  param { lr_mult: 1 }
}
layer {
  name: "res4c_branch2a_relu"
  bottom: "res4c_branch2a"
  top: "res4c_branch2a"
  type: "ReLU"
}
layer {
  name: "res4c_branch2b"
  bottom: "res4c_branch2a"
  top: "res4c_branch2b"
  type: "Convolution"
  param { lr_mult: 1 decay_mult: 1 }
  convolution_param {
    num_output: 256
    kernel_size: 3
    pad: 1
    stride: 1
    bias_term: false
    weight_filler { type: "msra" std: 0.010 }
  }
}
layer {
  name: "bn4c_branch2b"
  bottom: "res4c_branch2b"
  top: "res4c_branch2b"
  type: "BatchNorm"
  batch_norm_param {
    use_global_stats: false
  }
  param { lr_mult: 0 }
  param { lr_mult: 0 }
  param { lr_mult: 0 }
}
layer {
  name: "scale4c_branch2b"
  bottom: "res4c_branch2b"
  top: "res4c_branch2b"
  type: "Scale"
  scale_param {
    bias_term: true
  }
  param { lr_mult: 1 }
}
layer {
  name: "res4c_branch2b_relu"
  bottom: "res4c_branch2b"
  top: "res4c_branch2b"
  type: "ReLU"
}
layer {
  name: "res4c_branch2c"
  bottom: "res4c_branch2b"
  top: "res4c_branch2c"
  type: "Convolution"
  param { lr_mult: 1 decay_mult: 1 }
  convolution_param {
    num_output: 1024
    kernel_size: 1
    pad: 0
    stride: 1
    bias_term: false
    weight_filler { type: "msra" std: 0.010 }
  }
}
layer {
  name: "bn4c_branch2c"
  bottom: "res4c_branch2c"
  top: "res4c_branch2c"
  type: "BatchNorm"
  batch_norm_param {
    use_global_stats: false
  }
  param { lr_mult: 0 }
  param { lr_mult: 0 }
  param { lr_mult: 0 }
}
layer {
  name: "scale4c_branch2c"
  bottom: "res4c_branch2c"
  top: "res4c_branch2c"
  type: "Scale"
  scale_param {
    bias_term: true
  }
  param { lr_mult: 1 }
}
layer {
	name: "res4c"
	bottom: "res4b"
	bottom: "res4c_branch2c"
	top: "res4c"
	type: "Eltwise"
}
layer {
  name: "res4c_relu"
  bottom: "res4c"
  top: "res4c"
  type: "ReLU"
}
layer {
  name: "res4d_branch2a"
  bottom: "res4c"
  top: "res4d_branch2a"
  type: "Convolution"
  param { lr_mult: 1 decay_mult: 1 }
  convolution_param {
    num_output: 256
    kernel_size: 1
    pad: 0
    stride: 1
    bias_term: false
    weight_filler { type: "msra" std: 0.010 }
  }
}
layer {
  name: "bn4d_branch2a"
  bottom: "res4d_branch2a"
  top: "res4d_branch2a"
  type: "BatchNorm"
  batch_norm_param {
    use_global_stats: false
  }
  param { lr_mult: 0 }
  param { lr_mult: 0 }
  param { lr_mult: 0 }
}
layer {
  name: "scale4d_branch2a"
  bottom: "res4d_branch2a"
  top: "res4d_branch2a"
  type: "Scale"
  scale_param {
    bias_term: true
  }
  param { lr_mult: 1 }
}
layer {
  name: "res4d_branch2a_relu"
  bottom: "res4d_branch2a"
  top: "res4d_branch2a"
  type: "ReLU"
}
layer {
  name: "res4d_branch2b"
  bottom: "res4d_branch2a"
  top: "res4d_branch2b"
  type: "Convolution"
  param { lr_mult: 1 decay_mult: 1 }
  convolution_param {
    num_output: 256
    kernel_size: 3
    pad: 1
    stride: 1
    bias_term: false
    weight_filler { type: "msra" std: 0.010 }
  }
}
layer {
  name: "bn4d_branch2b"
  bottom: "res4d_branch2b"
  top: "res4d_branch2b"
  type: "BatchNorm"
  batch_norm_param {
    use_global_stats: false
  }
  param { lr_mult: 0 }
  param { lr_mult: 0 }
  param { lr_mult: 0 }
}
layer {
  name: "scale4d_branch2b"
  bottom: "res4d_branch2b"
  top: "res4d_branch2b"
  type: "Scale"
  scale_param {
    bias_term: true
  }
  param { lr_mult: 1 }
}
layer {
  name: "res4d_branch2b_relu"
  bottom: "res4d_branch2b"
  top: "res4d_branch2b"
  type: "ReLU"
}
layer {
  name: "res4d_branch2c"
  bottom: "res4d_branch2b"
  top: "res4d_branch2c"
  type: "Convolution"
  param { lr_mult: 1 decay_mult: 1 }
  convolution_param {
    num_output: 1024
    kernel_size: 1
    pad: 0
    stride: 1
    bias_term: false
    weight_filler { type: "msra" std: 0.010 }
  }
}
layer {
  name: "bn4d_branch2c"
  bottom: "res4d_branch2c"
  top: "res4d_branch2c"
  type: "BatchNorm"
  batch_norm_param {
    use_global_stats: false
  }
  param { lr_mult: 0 }
  param { lr_mult: 0 }
  param { lr_mult: 0 }
}
layer {
  name: "scale4d_branch2c"
  bottom: "res4d_branch2c"
  top: "res4d_branch2c"
  type: "Scale"
  scale_param {
    bias_term: true
  }
  param { lr_mult: 1 }
}
layer {
	name: "res4d"
	bottom: "res4c"
	bottom: "res4d_branch2c"
	top: "res4d"
	type: "Eltwise"
}
layer {
  name: "res4d_relu"
  bottom: "res4d"
  top: "res4d"
  type: "ReLU"
}
layer {
  name: "res4e_branch2a"
  bottom: "res4d"
  top: "res4e_branch2a"
  type: "Convolution"
  param { lr_mult: 1 decay_mult: 1 }
  convolution_param {
    num_output: 256
    kernel_size: 1
    pad: 0
    stride: 1
    bias_term: false
    weight_filler { type: "msra" std: 0.010 }
  }
}
layer {
  name: "bn4e_branch2a"
  bottom: "res4e_branch2a"
  top: "res4e_branch2a"
  type: "BatchNorm"
  batch_norm_param {
    use_global_stats: false
  }
  param { lr_mult: 0 }
  param { lr_mult: 0 }
  param { lr_mult: 0 }
}
layer {
  name: "scale4e_branch2a"
  bottom: "res4e_branch2a"
  top: "res4e_branch2a"
  type: "Scale"
  scale_param {
    bias_term: true
  }
  param { lr_mult: 1 }
}
layer {
  name: "res4e_branch2a_relu"
  bottom: "res4e_branch2a"
  top: "res4e_branch2a"
  type: "ReLU"
}
layer {
  name: "res4e_branch2b"
  bottom: "res4e_branch2a"
  top: "res4e_branch2b"
  type: "Convolution"
  param { lr_mult: 1 decay_mult: 1 }
  convolution_param {
    num_output: 256
    kernel_size: 3
    pad: 1
    stride: 1
    bias_term: false
    weight_filler { type: "msra" std: 0.010 }
  }
}
layer {
  name: "bn4e_branch2b"
  bottom: "res4e_branch2b"
  top: "res4e_branch2b"
  type: "BatchNorm"
  batch_norm_param {
    use_global_stats: false
  }
  param { lr_mult: 0 }
  param { lr_mult: 0 }
  param { lr_mult: 0 }
}
layer {
  name: "scale4e_branch2b"
  bottom: "res4e_branch2b"
  top: "res4e_branch2b"
  type: "Scale"
  scale_param {
    bias_term: true
  }
  param { lr_mult: 1 }
}
layer {
  name: "res4e_branch2b_relu"
  bottom: "res4e_branch2b"
  top: "res4e_branch2b"
  type: "ReLU"
}
layer {
  name: "res4e_branch2c"
  bottom: "res4e_branch2b"
  top: "res4e_branch2c"
  type: "Convolution"
  param { lr_mult: 1 decay_mult: 1 }
  convolution_param {
    num_output: 1024
    kernel_size: 1
    pad: 0
    stride: 1
    bias_term: false
    weight_filler { type: "msra" std: 0.010 }
  }
}
layer {
  name: "bn4e_branch2c"
  bottom: "res4e_branch2c"
  top: "res4e_branch2c"
  type: "BatchNorm"
  batch_norm_param {
    use_global_stats: false
  }
  param { lr_mult: 0 }
  param { lr_mult: 0 }
  param { lr_mult: 0 }
}
layer {
  name: "scale4e_branch2c"
  bottom: "res4e_branch2c"
  top: "res4e_branch2c"
  type: "Scale"
  scale_param {
    bias_term: true
  }
  param { lr_mult: 1 }
}
layer {
	name: "res4e"
	bottom: "res4d"
	bottom: "res4e_branch2c"
	top: "res4e"
	type: "Eltwise"
}
layer {
  name: "res4e_relu"
  bottom: "res4e"
  top: "res4e"
  type: "ReLU"
}
layer {
  name: "res4f_branch2a"
  bottom: "res4e"
  top: "res4f_branch2a"
  type: "Convolution"
  param { lr_mult: 1 decay_mult: 1 }
  convolution_param {
    num_output: 256
    kernel_size: 1
    pad: 0
    stride: 1
    bias_term: false
    weight_filler { type: "msra" std: 0.010 }
  }
}
layer {
  name: "bn4f_branch2a"
  bottom: "res4f_branch2a"
  top: "res4f_branch2a"
  type: "BatchNorm"
  batch_norm_param {
    use_global_stats: false
  }
  param { lr_mult: 0 }
  param { lr_mult: 0 }
  param { lr_mult: 0 }
}
layer {
  name: "scale4f_branch2a"
  bottom: "res4f_branch2a"
  top: "res4f_branch2a"
  type: "Scale"
  scale_param {
    bias_term: true
  }
  param { lr_mult: 1 }
}
layer {
  name: "res4f_branch2a_relu"
  bottom: "res4f_branch2a"
  top: "res4f_branch2a"
  type: "ReLU"
}
layer {
  name: "res4f_branch2b"
  bottom: "res4f_branch2a"
  top: "res4f_branch2b"
  type: "Convolution"
  param { lr_mult: 1 decay_mult: 1 }
  convolution_param {
    num_output: 256
    kernel_size: 3
    pad: 1
    stride: 1
    bias_term: false
    weight_filler { type: "msra" std: 0.010 }
  }
}
layer {
  name: "bn4f_branch2b"
  bottom: "res4f_branch2b"
  top: "res4f_branch2b"
  type: "BatchNorm"
  batch_norm_param {
    use_global_stats: false
  }
  param { lr_mult: 0 }
  param { lr_mult: 0 }
  param { lr_mult: 0 }
}
layer {
  name: "scale4f_branch2b"
  bottom: "res4f_branch2b"
  top: "res4f_branch2b"
  type: "Scale"
  scale_param {
    bias_term: true
  }
  param { lr_mult: 1 }
}
layer {
  name: "res4f_branch2b_relu"
  bottom: "res4f_branch2b"
  top: "res4f_branch2b"
  type: "ReLU"
}
layer {
  name: "res4f_branch2c"
  bottom: "res4f_branch2b"
  top: "res4f_branch2c"
  type: "Convolution"
  param { lr_mult: 1 decay_mult: 1 }
  convolution_param {
    num_output: 1024
    kernel_size: 1
    pad: 0
    stride: 1
    bias_term: false
    weight_filler { type: "msra" std: 0.010 }
  }
}
layer {
  name: "bn4f_branch2c"
  bottom: "res4f_branch2c"
  top: "res4f_branch2c"
  type: "BatchNorm"
  batch_norm_param {
    use_global_stats: false
  }
  param { lr_mult: 0 }
  param { lr_mult: 0 }
  param { lr_mult: 0 }
}
layer {
  name: "scale4f_branch2c"
  bottom: "res4f_branch2c"
  top: "res4f_branch2c"
  type: "Scale"
  scale_param {
    bias_term: true
  }
  param { lr_mult: 1 }
}
layer {
	name: "res4f"
	bottom: "res4e"
	bottom: "res4f_branch2c"
	top: "res4f"
	type: "Eltwise"
}
layer {
  name: "res4f_relu"
  bottom: "res4f"
  top: "res4f"
  type: "ReLU"
}
#============== RPN ===============
layer {
  name: "rpn_conv/3x3"
  type: "Convolution"
  bottom: "res4f"
  top: "rpn/output"
  param { lr_mult: 1.0 decay_mult: 1.0 }
  param { lr_mult: 2.0 decay_mult: 0 }
  convolution_param {
    num_output: 512
    kernel_size: 3 pad: 1 stride: 1
    weight_filler { type: "gaussian" std: 0.01 }
    bias_filler { type: "constant" value: 0 }
  }
}
layer {
  name: "rpn_relu/3x3"
  type: "ReLU"
  bottom: "rpn/output"
  top: "rpn/output"
}
layer {
  name: "rpn_cls_score"
  type: "Convolution"
  bottom: "rpn/output"
  top: "rpn_cls_score"
  param { lr_mult: 1.0 decay_mult: 1.0 }
  param { lr_mult: 2.0 decay_mult: 0 }
  convolution_param {
    num_output: 18   # 2(bg/fg) * 9(anchors)
    kernel_size: 1 pad: 0 stride: 1
    weight_filler { type: "gaussian" std: 0.01 }
    bias_filler { type: "constant" value: 0 }
  }
}
layer {
  name: "rpn_bbox_pred"
  type: "Convolution"
  bottom: "rpn/output"
  top: "rpn_bbox_pred"
  param { lr_mult: 1.0 decay_mult: 1.0 }
  param { lr_mult: 2.0 decay_mult: 0 }
  convolution_param {
    num_output: 36   # 4 * 9(anchors)
    kernel_size: 1 pad: 0 stride: 1
    weight_filler { type: "gaussian" std: 0.01 }
    bias_filler { type: "constant" value: 0 }
  }
}
layer {
   bottom: "rpn_cls_score"
   top: "rpn_cls_score_reshape"
   name: "rpn_cls_score_reshape"
   type: "Reshape"
   reshape_param { shape { dim: 0 dim: 2 dim: -1 dim: 0 } }
}
layer {
  name: 'rpn-data'
  type: 'Python'
  bottom: 'rpn_cls_score'
  bottom: 'gt_boxes'
  bottom: 'im_info'
  bottom: 'data'
  top: 'rpn_labels'
  top: 'rpn_bbox_targets'
  top: 'rpn_bbox_inside_weights'
  top: 'rpn_bbox_outside_weights'
  python_param {
    module: 'rpn.anchor_target_layer'
    layer: 'AnchorTargetLayer'
    param_str: "'feat_stride': 16"
  }
}
layer {
  name: "rpn_loss_cls"
  type: "SoftmaxWithLoss"
  bottom: "rpn_cls_score_reshape"
  bottom: "rpn_labels"
  propagate_down: 1
  propagate_down: 0
  top: "rpn_cls_loss"
  loss_weight: 1
  loss_param {
    ignore_label: -1
    normalize: true
  }
}
layer {
  name: "rpn_loss_bbox"
  type: "SmoothL1Loss"
  bottom: "rpn_bbox_pred"
  bottom: "rpn_bbox_targets"
  bottom: 'rpn_bbox_inside_weights'
  bottom: 'rpn_bbox_outside_weights'
  top: "rpn_loss_bbox"
  loss_weight: 1
  smooth_l1_loss_param { sigma: 3.0 }
}
#============== ROI Proposal ===============
layer {
  name: "rpn_cls_prob"
  type: "Softmax"
  bottom: "rpn_cls_score_reshape"
  top: "rpn_cls_prob"
}
layer {
  name: 'rpn_cls_prob_reshape'
  type: 'Reshape'
  bottom: 'rpn_cls_prob'
  top: 'rpn_cls_prob_reshape'
  reshape_param { shape { dim: 0 dim: 18 dim: -1 dim: 0 } }
}
layer {
  name: 'proposal'
  type: 'Python'
  bottom: 'rpn_cls_prob_reshape'
  bottom: 'rpn_bbox_pred'
  bottom: 'im_info'
  top: 'rpn_rois'
  python_param {
    module: 'rpn.proposal_layer'
    layer: 'ProposalLayer'
    param_str: "'feat_stride': 16"
  }
}
layer {
  name: "roi-data"
  type: "Python"
  bottom: "rpn_rois"
  bottom: "gt_boxes"
  top: "rois"
  top: "labels"
  top: "bbox_targets"
  top: "bbox_inside_weights"
  top: "bbox_outside_weights"
  top: "labels_0"
  top: "labels_1"
  top: "labels_3"
  top: "labels_4"
  top: "labels_5"
  top: "labels_6"
  top: "labels_7"
  top: "labels_8"
  top: "labels_9"
  top: "labels_10"
  top: "labels_11"
  top: "labels_15"
  top: "labels_16"
  top: "labels_17"
  top: "labels_18"
  top: "labels_21"
  top: "labels_32"
  top: "labels_33"
  top: "labels_34"
  top: "labels_35"
  top: "labels_36"
  top: "labels_37"
  top: "labels_38"
  top: "labels_39"
  top: "labels_40"
  top: "labels_43"
  top: "labels_44"
  top: "labels_47"
  top: "labels_48"
  top: "labels_50"
  top: "labels_53"
  top: "labels_61"
  top: "labels_63"
  top: "labels_65"
  top: "labels_66"
  top: "labels_67"
  top: "labels_68"
  top: "labels_69"
  top: "labels_72"
  top: "labels_76"
  top: "labels_80"
  top: "labels_81"
  top: "labels_86"
  top: "labels_90"
  top: "labels_93"
  top: "labels_95"
  top: "labels_96"
  top: "labels_98"
  top: "labels_100"
  top: "labels_104"
  top: "labels_107"
  top: "labels_111"
  top: "labels_113"
  top: "labels_114"
  top: "labels_115"
  top: "labels_116"
  top: "labels_117"
  top: "labels_118"
  top: "labels_120"
  top: "labels_124"
  top: "labels_125"
  top: "labels_139"
  top: "labels_142"
  top: "labels_150"
  top: "labels_151"
  top: "labels_154"
  top: "labels_164"
  top: "labels_168"
  top: "labels_169"
  top: "labels_170"
  top: "labels_172"
  top: "labels_185"
  top: "labels_186"
  top: "labels_192"
  top: "labels_204"
  top: "labels_214"
  top: "labels_222"
  top: "labels_224"
  top: "labels_225"
  top: "labels_226"
  top: "labels_232"
  top: "labels_236"
  top: "labels_242"
  top: "labels_246"
  top: "labels_247"
  top: "labels_248"
  top: "labels_250"
  top: "labels_253"
  top: "labels_254"
  top: "labels_273"
  top: "labels_279"
  python_param {
    module: "rpn.proposal_target_layer"
    layer: "ProposalTargetLayer"
    param_str: "\'num_classes\': 285"
  }
}
#============== RCNN ===============
layer {
  name: "roi_pool5"
  type: "ROIPooling"
  bottom: "res4f"
  bottom: "rois"
  top: "roi_pool5"
  roi_pooling_param {
    pooled_w: 14
    pooled_h: 14
    spatial_scale: 0.062500
  }
}
layer {
  name: "res5a_branch2a"
  bottom: "roi_pool5"
  top: "res5a_branch2a"
  type: "Convolution"
  param { lr_mult: 1 decay_mult: 1 }
  convolution_param {
    num_output: 512
    kernel_size: 1
    pad: 0
    stride: 2
    bias_term: false
    weight_filler { type: "msra" std: 0.010 }
  }
}
layer {
  name: "bn5a_branch2a"
  bottom: "res5a_branch2a"
  top: "res5a_branch2a"
  type: "BatchNorm"
  batch_norm_param {
    use_global_stats: false
  }
  param { lr_mult: 0 }
  param { lr_mult: 0 }
  param { lr_mult: 0 }
}
layer {
  name: "scale5a_branch2a"
  bottom: "res5a_branch2a"
  top: "res5a_branch2a"
  type: "Scale"
  scale_param {
    bias_term: true
  }
  param { lr_mult: 1 }
}
layer {
  name: "res5a_branch2a_relu"
  bottom: "res5a_branch2a"
  top: "res5a_branch2a"
  type: "ReLU"
}
layer {
  name: "res5a_branch2b"
  bottom: "res5a_branch2a"
  top: "res5a_branch2b"
  type: "Convolution"
  param { lr_mult: 1 decay_mult: 1 }
  convolution_param {
    num_output: 512
    kernel_size: 3
    pad: 1
    stride: 1
    bias_term: false
    weight_filler { type: "msra" std: 0.010 }
  }
}
layer {
  name: "bn5a_branch2b"
  bottom: "res5a_branch2b"
  top: "res5a_branch2b"
  type: "BatchNorm"
  batch_norm_param {
    use_global_stats: false
  }
  param { lr_mult: 0 }
  param { lr_mult: 0 }
  param { lr_mult: 0 }
}
layer {
  name: "scale5a_branch2b"
  bottom: "res5a_branch2b"
  top: "res5a_branch2b"
  type: "Scale"
  scale_param {
    bias_term: true
  }
  param { lr_mult: 1 }
}
layer {
  name: "res5a_branch2b_relu"
  bottom: "res5a_branch2b"
  top: "res5a_branch2b"
  type: "ReLU"
}
layer {
  name: "res5a_branch2c"
  bottom: "res5a_branch2b"
  top: "res5a_branch2c"
  type: "Convolution"
  param { lr_mult: 1 decay_mult: 1 }
  convolution_param {
    num_output: 2048
    kernel_size: 1
    pad: 0
    stride: 1
    bias_term: false
    weight_filler { type: "msra" std: 0.010 }
  }
}
layer {
  name: "bn5a_branch2c"
  bottom: "res5a_branch2c"
  top: "res5a_branch2c"
  type: "BatchNorm"
  batch_norm_param {
    use_global_stats: false
  }
  param { lr_mult: 0 }
  param { lr_mult: 0 }
  param { lr_mult: 0 }
}
layer {
  name: "scale5a_branch2c"
  bottom: "res5a_branch2c"
  top: "res5a_branch2c"
  type: "Scale"
  scale_param {
    bias_term: true
  }
  param { lr_mult: 1 }
}
layer {
  name: "res5a_branch1"
  bottom: "roi_pool5"
  top: "res5a_branch1"
  type: "Convolution"
  param { lr_mult: 1 decay_mult: 1 }
  convolution_param {
    num_output: 2048
    kernel_size: 1
    pad: 0
    stride: 2
    bias_term: false
    weight_filler { type: "msra" std: 0.010 }
  }
}
layer {
  name: "bn5a_branch1"
  bottom: "res5a_branch1"
  top: "res5a_branch1"
  type: "BatchNorm"
  batch_norm_param {
    use_global_stats: false
  }
  param { lr_mult: 0 }
  param { lr_mult: 0 }
  param { lr_mult: 0 }
}
layer {
  name: "scale5a_branch1"
  bottom: "res5a_branch1"
  top: "res5a_branch1"
  type: "Scale"
  scale_param {
    bias_term: true
  }
  param { lr_mult: 1 }
}
layer {
	name: "res5a"
	bottom: "res5a_branch1"
	bottom: "res5a_branch2c"
	top: "res5a"
	type: "Eltwise"
}
layer {
  name: "res5a_relu"
  bottom: "res5a"
  top: "res5a"
  type: "ReLU"
}
layer {
  name: "res5b_branch2a"
  bottom: "res5a"
  top: "res5b_branch2a"
  type: "Convolution"
  param { lr_mult: 1 decay_mult: 1 }
  convolution_param {
    num_output: 512
    kernel_size: 1
    pad: 0
    stride: 1
    bias_term: false
    weight_filler { type: "msra" std: 0.010 }
  }
}
layer {
  name: "bn5b_branch2a"
  bottom: "res5b_branch2a"
  top: "res5b_branch2a"
  type: "BatchNorm"
  batch_norm_param {
    use_global_stats: false
  }
  param { lr_mult: 0 }
  param { lr_mult: 0 }
  param { lr_mult: 0 }
}
layer {
  name: "scale5b_branch2a"
  bottom: "res5b_branch2a"
  top: "res5b_branch2a"
  type: "Scale"
  scale_param {
    bias_term: true
  }
  param { lr_mult: 1 }
}
layer {
  name: "res5b_branch2a_relu"
  bottom: "res5b_branch2a"
  top: "res5b_branch2a"
  type: "ReLU"
}
layer {
  name: "res5b_branch2b"
  bottom: "res5b_branch2a"
  top: "res5b_branch2b"
  type: "Convolution"
  param { lr_mult: 1 decay_mult: 1 }
  convolution_param {
    num_output: 512
    kernel_size: 3
    pad: 1
    stride: 1
    bias_term: false
    weight_filler { type: "msra" std: 0.010 }
  }
}
layer {
  name: "bn5b_branch2b"
  bottom: "res5b_branch2b"
  top: "res5b_branch2b"
  type: "BatchNorm"
  batch_norm_param {
    use_global_stats: false
  }
  param { lr_mult: 0 }
  param { lr_mult: 0 }
  param { lr_mult: 0 }
}
layer {
  name: "scale5b_branch2b"
  bottom: "res5b_branch2b"
  top: "res5b_branch2b"
  type: "Scale"
  scale_param {
    bias_term: true
  }
  param { lr_mult: 1 }
}
layer {
  name: "res5b_branch2b_relu"
  bottom: "res5b_branch2b"
  top: "res5b_branch2b"
  type: "ReLU"
}
layer {
  name: "res5b_branch2c"
  bottom: "res5b_branch2b"
  top: "res5b_branch2c"
  type: "Convolution"
  param { lr_mult: 1 decay_mult: 1 }
  convolution_param {
    num_output: 2048
    kernel_size: 1
    pad: 0
    stride: 1
    bias_term: false
    weight_filler { type: "msra" std: 0.010 }
  }
}
layer {
  name: "bn5b_branch2c"
  bottom: "res5b_branch2c"
  top: "res5b_branch2c"
  type: "BatchNorm"
  batch_norm_param {
    use_global_stats: false
  }
  param { lr_mult: 0 }
  param { lr_mult: 0 }
  param { lr_mult: 0 }
}
layer {
  name: "scale5b_branch2c"
  bottom: "res5b_branch2c"
  top: "res5b_branch2c"
  type: "Scale"
  scale_param {
    bias_term: true
  }
  param { lr_mult: 1 }
}
layer {
	name: "res5b"
	bottom: "res5a"
	bottom: "res5b_branch2c"
	top: "res5b"
	type: "Eltwise"
}
layer {
  name: "res5b_relu"
  bottom: "res5b"
  top: "res5b"
  type: "ReLU"
}
layer {
  name: "res5c_branch2a"
  bottom: "res5b"
  top: "res5c_branch2a"
  type: "Convolution"
  param { lr_mult: 1 decay_mult: 1 }
  convolution_param {
    num_output: 512
    kernel_size: 1
    pad: 0
    stride: 1
    bias_term: false
    weight_filler { type: "msra" std: 0.010 }
  }
}
layer {
  name: "bn5c_branch2a"
  bottom: "res5c_branch2a"
  top: "res5c_branch2a"
  type: "BatchNorm"
  batch_norm_param {
    use_global_stats: false
  }
  param { lr_mult: 0 }
  param { lr_mult: 0 }
  param { lr_mult: 0 }
}
layer {
  name: "scale5c_branch2a"
  bottom: "res5c_branch2a"
  top: "res5c_branch2a"
  type: "Scale"
  scale_param {
    bias_term: true
  }
  param { lr_mult: 1 }
}
layer {
  name: "res5c_branch2a_relu"
  bottom: "res5c_branch2a"
  top: "res5c_branch2a"
  type: "ReLU"
}
layer {
  name: "res5c_branch2b"
  bottom: "res5c_branch2a"
  top: "res5c_branch2b"
  type: "Convolution"
  param { lr_mult: 1 decay_mult: 1 }
  convolution_param {
    num_output: 512
    kernel_size: 3
    pad: 1
    stride: 1
    bias_term: false
    weight_filler { type: "msra" std: 0.010 }
  }
}
layer {
  name: "bn5c_branch2b"
  bottom: "res5c_branch2b"
  top: "res5c_branch2b"
  type: "BatchNorm"
  batch_norm_param {
    use_global_stats: false
  }
  param { lr_mult: 0 }
  param { lr_mult: 0 }
  param { lr_mult: 0 }
}
layer {
  name: "scale5c_branch2b"
  bottom: "res5c_branch2b"
  top: "res5c_branch2b"
  type: "Scale"
  scale_param {
    bias_term: true
  }
  param { lr_mult: 1 }
}
layer {
  name: "res5c_branch2b_relu"
  bottom: "res5c_branch2b"
  top: "res5c_branch2b"
  type: "ReLU"
}
layer {
  name: "res5c_branch2c"
  bottom: "res5c_branch2b"
  top: "res5c_branch2c"
  type: "Convolution"
  param { lr_mult: 1 decay_mult: 1 }
  convolution_param {
    num_output: 2048
    kernel_size: 1
    pad: 0
    stride: 1
    bias_term: false
    weight_filler { type: "msra" std: 0.010 }
  }
}
layer {
  name: "bn5c_branch2c"
  bottom: "res5c_branch2c"
  top: "res5c_branch2c"
  type: "BatchNorm"
  batch_norm_param {
    use_global_stats: false
  }
  param { lr_mult: 0 }
  param { lr_mult: 0 }
  param { lr_mult: 0 }
}
layer {
  name: "scale5c_branch2c"
  bottom: "res5c_branch2c"
  top: "res5c_branch2c"
  type: "Scale"
  scale_param {
    bias_term: true
  }
  param { lr_mult: 1 }
}
layer {
	name: "res5c"
	bottom: "res5b"
	bottom: "res5c_branch2c"
	top: "res5c"
	type: "Eltwise"
}
layer {
  name: "res5c_relu"
  bottom: "res5c"
  top: "res5c"
  type: "ReLU"
}
layer {
  name: "pool5"
  bottom: "res5c"
  top: "pool5"
  type: "Pooling"
  pooling_param {
    pool: AVE
    kernel_size: 7
    stride: 1
  }
}
layer {
  name: "bbox_pred"
  type: "InnerProduct"
  bottom: "pool5"
  top: "bbox_pred"
  param {
    lr_mult: 1.0
  }
  param {
    lr_mult: 2.0
  }
  inner_product_param {
    num_output: 1140
    weight_filler {
      type: "gaussian"
      std: 0.001
    }
    bias_filler {
      type: "constant"
      value: 0
    }
  }
}
layer {
  name: "loss_bbox"
  type: "SmoothL1Loss"
  bottom: "bbox_pred"
  bottom: "bbox_targets"
  bottom: "bbox_inside_weights"
  bottom: "bbox_outside_weights"
  top: "bbox_loss"
  loss_weight: 1
}
layer {
  name: "cls_score_0"
  type: "InnerProduct"
  bottom: "pool5"
  top: "cls_score_0"
  param {
    lr_mult: 1.0
  }
  param {
    lr_mult: 2.0
  }
  inner_product_param {
    num_output: 2
    weight_filler {
      type: "gaussian"
      std: 0.001
    }
    bias_filler {
      type: "constant"
      value: 0
    }
  }
}
layer {
  name: "routing_0"
  type: "Python"
  bottom: "cls_score_0"
  bottom: "labels"
  top: "routing_0"
  python_param {
    module: "routing_layer.layer"
    layer: "RoutingLayer"
    param_str: "\'routing_idx\': 0"
  }
}
layer {
  name: "loss_cls_0"
  type: "SoftmaxWithLoss"
  bottom: "routing_0"
  bottom: "labels_0"
  top: "cls_loss_0"
  loss_weight: 1
  propagate_down: true
  propagate_down: false
  loss_param {
    ignore_label: -1
    normalize: true
  }
}
layer {
  name: "cls_score_1"
  type: "InnerProduct"
  bottom: "pool5"
  top: "cls_score_1"
  param {
    lr_mult: 1.0
  }
  param {
    lr_mult: 2.0
  }
  inner_product_param {
    num_output: 2
    weight_filler {
      type: "gaussian"
      std: 0.001
    }
    bias_filler {
      type: "constant"
      value: 0
    }
  }
}
layer {
  name: "routing_1"
  type: "Python"
  bottom: "cls_score_1"
  bottom: "labels"
  top: "routing_1"
  python_param {
    module: "routing_layer.layer"
    layer: "RoutingLayer"
    param_str: "\'routing_idx\': 1"
  }
}
layer {
  name: "loss_cls_1"
  type: "SoftmaxWithLoss"
  bottom: "routing_1"
  bottom: "labels_1"
  top: "cls_loss_1"
  loss_weight: 1
  propagate_down: true
  propagate_down: false
  loss_param {
    ignore_label: -1
    normalize: true
  }
}
layer {
  name: "cls_score_3"
  type: "InnerProduct"
  bottom: "pool5"
  top: "cls_score_3"
  param {
    lr_mult: 1.0
  }
  param {
    lr_mult: 2.0
  }
  inner_product_param {
    num_output: 2
    weight_filler {
      type: "gaussian"
      std: 0.001
    }
    bias_filler {
      type: "constant"
      value: 0
    }
  }
}
layer {
  name: "routing_3"
  type: "Python"
  bottom: "cls_score_3"
  bottom: "labels"
  top: "routing_3"
  python_param {
    module: "routing_layer.layer"
    layer: "RoutingLayer"
    param_str: "\'routing_idx\': 3"
  }
}
layer {
  name: "loss_cls_3"
  type: "SoftmaxWithLoss"
  bottom: "routing_3"
  bottom: "labels_3"
  top: "cls_loss_3"
  loss_weight: 1
  propagate_down: true
  propagate_down: false
  loss_param {
    ignore_label: -1
    normalize: true
  }
}
layer {
  name: "cls_score_4"
  type: "InnerProduct"
  bottom: "pool5"
  top: "cls_score_4"
  param {
    lr_mult: 1.0
  }
  param {
    lr_mult: 2.0
  }
  inner_product_param {
    num_output: 2
    weight_filler {
      type: "gaussian"
      std: 0.001
    }
    bias_filler {
      type: "constant"
      value: 0
    }
  }
}
layer {
  name: "routing_4"
  type: "Python"
  bottom: "cls_score_4"
  bottom: "labels"
  top: "routing_4"
  python_param {
    module: "routing_layer.layer"
    layer: "RoutingLayer"
    param_str: "\'routing_idx\': 4"
  }
}
layer {
  name: "loss_cls_4"
  type: "SoftmaxWithLoss"
  bottom: "routing_4"
  bottom: "labels_4"
  top: "cls_loss_4"
  loss_weight: 1
  propagate_down: true
  propagate_down: false
  loss_param {
    ignore_label: -1
    normalize: true
  }
}
layer {
  name: "cls_score_5"
  type: "InnerProduct"
  bottom: "pool5"
  top: "cls_score_5"
  param {
    lr_mult: 1.0
  }
  param {
    lr_mult: 2.0
  }
  inner_product_param {
    num_output: 2
    weight_filler {
      type: "gaussian"
      std: 0.001
    }
    bias_filler {
      type: "constant"
      value: 0
    }
  }
}
layer {
  name: "routing_5"
  type: "Python"
  bottom: "cls_score_5"
  bottom: "labels"
  top: "routing_5"
  python_param {
    module: "routing_layer.layer"
    layer: "RoutingLayer"
    param_str: "\'routing_idx\': 5"
  }
}
layer {
  name: "loss_cls_5"
  type: "SoftmaxWithLoss"
  bottom: "routing_5"
  bottom: "labels_5"
  top: "cls_loss_5"
  loss_weight: 1
  propagate_down: true
  propagate_down: false
  loss_param {
    ignore_label: -1
    normalize: true
  }
}
layer {
  name: "cls_score_6"
  type: "InnerProduct"
  bottom: "pool5"
  top: "cls_score_6"
  param {
    lr_mult: 1.0
  }
  param {
    lr_mult: 2.0
  }
  inner_product_param {
    num_output: 2
    weight_filler {
      type: "gaussian"
      std: 0.001
    }
    bias_filler {
      type: "constant"
      value: 0
    }
  }
}
layer {
  name: "routing_6"
  type: "Python"
  bottom: "cls_score_6"
  bottom: "labels"
  top: "routing_6"
  python_param {
    module: "routing_layer.layer"
    layer: "RoutingLayer"
    param_str: "\'routing_idx\': 6"
  }
}
layer {
  name: "loss_cls_6"
  type: "SoftmaxWithLoss"
  bottom: "routing_6"
  bottom: "labels_6"
  top: "cls_loss_6"
  loss_weight: 1
  propagate_down: true
  propagate_down: false
  loss_param {
    ignore_label: -1
    normalize: true
  }
}
layer {
  name: "cls_score_7"
  type: "InnerProduct"
  bottom: "pool5"
  top: "cls_score_7"
  param {
    lr_mult: 1.0
  }
  param {
    lr_mult: 2.0
  }
  inner_product_param {
    num_output: 2
    weight_filler {
      type: "gaussian"
      std: 0.001
    }
    bias_filler {
      type: "constant"
      value: 0
    }
  }
}
layer {
  name: "routing_7"
  type: "Python"
  bottom: "cls_score_7"
  bottom: "labels"
  top: "routing_7"
  python_param {
    module: "routing_layer.layer"
    layer: "RoutingLayer"
    param_str: "\'routing_idx\': 7"
  }
}
layer {
  name: "loss_cls_7"
  type: "SoftmaxWithLoss"
  bottom: "routing_7"
  bottom: "labels_7"
  top: "cls_loss_7"
  loss_weight: 1
  propagate_down: true
  propagate_down: false
  loss_param {
    ignore_label: -1
    normalize: true
  }
}
layer {
  name: "cls_score_8"
  type: "InnerProduct"
  bottom: "pool5"
  top: "cls_score_8"
  param {
    lr_mult: 1.0
  }
  param {
    lr_mult: 2.0
  }
  inner_product_param {
    num_output: 4
    weight_filler {
      type: "gaussian"
      std: 0.001
    }
    bias_filler {
      type: "constant"
      value: 0
    }
  }
}
layer {
  name: "routing_8"
  type: "Python"
  bottom: "cls_score_8"
  bottom: "labels"
  top: "routing_8"
  python_param {
    module: "routing_layer.layer"
    layer: "RoutingLayer"
    param_str: "\'routing_idx\': 8"
  }
}
layer {
  name: "loss_cls_8"
  type: "SoftmaxWithLoss"
  bottom: "routing_8"
  bottom: "labels_8"
  top: "cls_loss_8"
  loss_weight: 1
  propagate_down: true
  propagate_down: false
  loss_param {
    ignore_label: -1
    normalize: true
  }
}
layer {
  name: "cls_score_9"
  type: "InnerProduct"
  bottom: "pool5"
  top: "cls_score_9"
  param {
    lr_mult: 1.0
  }
  param {
    lr_mult: 2.0
  }
  inner_product_param {
    num_output: 2
    weight_filler {
      type: "gaussian"
      std: 0.001
    }
    bias_filler {
      type: "constant"
      value: 0
    }
  }
}
layer {
  name: "routing_9"
  type: "Python"
  bottom: "cls_score_9"
  bottom: "labels"
  top: "routing_9"
  python_param {
    module: "routing_layer.layer"
    layer: "RoutingLayer"
    param_str: "\'routing_idx\': 9"
  }
}
layer {
  name: "loss_cls_9"
  type: "SoftmaxWithLoss"
  bottom: "routing_9"
  bottom: "labels_9"
  top: "cls_loss_9"
  loss_weight: 1
  propagate_down: true
  propagate_down: false
  loss_param {
    ignore_label: -1
    normalize: true
  }
}
layer {
  name: "cls_score_10"
  type: "InnerProduct"
  bottom: "pool5"
  top: "cls_score_10"
  param {
    lr_mult: 1.0
  }
  param {
    lr_mult: 2.0
  }
  inner_product_param {
    num_output: 7
    weight_filler {
      type: "gaussian"
      std: 0.001
    }
    bias_filler {
      type: "constant"
      value: 0
    }
  }
}
layer {
  name: "routing_10"
  type: "Python"
  bottom: "cls_score_10"
  bottom: "labels"
  top: "routing_10"
  python_param {
    module: "routing_layer.layer"
    layer: "RoutingLayer"
    param_str: "\'routing_idx\': 10"
  }
}
layer {
  name: "loss_cls_10"
  type: "SoftmaxWithLoss"
  bottom: "routing_10"
  bottom: "labels_10"
  top: "cls_loss_10"
  loss_weight: 1
  propagate_down: true
  propagate_down: false
  loss_param {
    ignore_label: -1
    normalize: true
  }
}
layer {
  name: "cls_score_11"
  type: "InnerProduct"
  bottom: "pool5"
  top: "cls_score_11"
  param {
    lr_mult: 1.0
  }
  param {
    lr_mult: 2.0
  }
  inner_product_param {
    num_output: 5
    weight_filler {
      type: "gaussian"
      std: 0.001
    }
    bias_filler {
      type: "constant"
      value: 0
    }
  }
}
layer {
  name: "routing_11"
  type: "Python"
  bottom: "cls_score_11"
  bottom: "labels"
  top: "routing_11"
  python_param {
    module: "routing_layer.layer"
    layer: "RoutingLayer"
    param_str: "\'routing_idx\': 11"
  }
}
layer {
  name: "loss_cls_11"
  type: "SoftmaxWithLoss"
  bottom: "routing_11"
  bottom: "labels_11"
  top: "cls_loss_11"
  loss_weight: 1
  propagate_down: true
  propagate_down: false
  loss_param {
    ignore_label: -1
    normalize: true
  }
}
layer {
  name: "cls_score_15"
  type: "InnerProduct"
  bottom: "pool5"
  top: "cls_score_15"
  param {
    lr_mult: 1.0
  }
  param {
    lr_mult: 2.0
  }
  inner_product_param {
    num_output: 2
    weight_filler {
      type: "gaussian"
      std: 0.001
    }
    bias_filler {
      type: "constant"
      value: 0
    }
  }
}
layer {
  name: "routing_15"
  type: "Python"
  bottom: "cls_score_15"
  bottom: "labels"
  top: "routing_15"
  python_param {
    module: "routing_layer.layer"
    layer: "RoutingLayer"
    param_str: "\'routing_idx\': 15"
  }
}
layer {
  name: "loss_cls_15"
  type: "SoftmaxWithLoss"
  bottom: "routing_15"
  bottom: "labels_15"
  top: "cls_loss_15"
  loss_weight: 1
  propagate_down: true
  propagate_down: false
  loss_param {
    ignore_label: -1
    normalize: true
  }
}
layer {
  name: "cls_score_16"
  type: "InnerProduct"
  bottom: "pool5"
  top: "cls_score_16"
  param {
    lr_mult: 1.0
  }
  param {
    lr_mult: 2.0
  }
  inner_product_param {
    num_output: 7
    weight_filler {
      type: "gaussian"
      std: 0.001
    }
    bias_filler {
      type: "constant"
      value: 0
    }
  }
}
layer {
  name: "routing_16"
  type: "Python"
  bottom: "cls_score_16"
  bottom: "labels"
  top: "routing_16"
  python_param {
    module: "routing_layer.layer"
    layer: "RoutingLayer"
    param_str: "\'routing_idx\': 16"
  }
}
layer {
  name: "loss_cls_16"
  type: "SoftmaxWithLoss"
  bottom: "routing_16"
  bottom: "labels_16"
  top: "cls_loss_16"
  loss_weight: 1
  propagate_down: true
  propagate_down: false
  loss_param {
    ignore_label: -1
    normalize: true
  }
}
layer {
  name: "cls_score_17"
  type: "InnerProduct"
  bottom: "pool5"
  top: "cls_score_17"
  param {
    lr_mult: 1.0
  }
  param {
    lr_mult: 2.0
  }
  inner_product_param {
    num_output: 2
    weight_filler {
      type: "gaussian"
      std: 0.001
    }
    bias_filler {
      type: "constant"
      value: 0
    }
  }
}
layer {
  name: "routing_17"
  type: "Python"
  bottom: "cls_score_17"
  bottom: "labels"
  top: "routing_17"
  python_param {
    module: "routing_layer.layer"
    layer: "RoutingLayer"
    param_str: "\'routing_idx\': 17"
  }
}
layer {
  name: "loss_cls_17"
  type: "SoftmaxWithLoss"
  bottom: "routing_17"
  bottom: "labels_17"
  top: "cls_loss_17"
  loss_weight: 1
  propagate_down: true
  propagate_down: false
  loss_param {
    ignore_label: -1
    normalize: true
  }
}
layer {
  name: "cls_score_18"
  type: "InnerProduct"
  bottom: "pool5"
  top: "cls_score_18"
  param {
    lr_mult: 1.0
  }
  param {
    lr_mult: 2.0
  }
  inner_product_param {
    num_output: 2
    weight_filler {
      type: "gaussian"
      std: 0.001
    }
    bias_filler {
      type: "constant"
      value: 0
    }
  }
}
layer {
  name: "routing_18"
  type: "Python"
  bottom: "cls_score_18"
  bottom: "labels"
  top: "routing_18"
  python_param {
    module: "routing_layer.layer"
    layer: "RoutingLayer"
    param_str: "\'routing_idx\': 18"
  }
}
layer {
  name: "loss_cls_18"
  type: "SoftmaxWithLoss"
  bottom: "routing_18"
  bottom: "labels_18"
  top: "cls_loss_18"
  loss_weight: 1
  propagate_down: true
  propagate_down: false
  loss_param {
    ignore_label: -1
    normalize: true
  }
}
layer {
  name: "cls_score_21"
  type: "InnerProduct"
  bottom: "pool5"
  top: "cls_score_21"
  param {
    lr_mult: 1.0
  }
  param {
    lr_mult: 2.0
  }
  inner_product_param {
    num_output: 2
    weight_filler {
      type: "gaussian"
      std: 0.001
    }
    bias_filler {
      type: "constant"
      value: 0
    }
  }
}
layer {
  name: "routing_21"
  type: "Python"
  bottom: "cls_score_21"
  bottom: "labels"
  top: "routing_21"
  python_param {
    module: "routing_layer.layer"
    layer: "RoutingLayer"
    param_str: "\'routing_idx\': 21"
  }
}
layer {
  name: "loss_cls_21"
  type: "SoftmaxWithLoss"
  bottom: "routing_21"
  bottom: "labels_21"
  top: "cls_loss_21"
  loss_weight: 1
  propagate_down: true
  propagate_down: false
  loss_param {
    ignore_label: -1
    normalize: true
  }
}
layer {
  name: "cls_score_32"
  type: "InnerProduct"
  bottom: "pool5"
  top: "cls_score_32"
  param {
    lr_mult: 1.0
  }
  param {
    lr_mult: 2.0
  }
  inner_product_param {
    num_output: 2
    weight_filler {
      type: "gaussian"
      std: 0.001
    }
    bias_filler {
      type: "constant"
      value: 0
    }
  }
}
layer {
  name: "routing_32"
  type: "Python"
  bottom: "cls_score_32"
  bottom: "labels"
  top: "routing_32"
  python_param {
    module: "routing_layer.layer"
    layer: "RoutingLayer"
    param_str: "\'routing_idx\': 32"
  }
}
layer {
  name: "loss_cls_32"
  type: "SoftmaxWithLoss"
  bottom: "routing_32"
  bottom: "labels_32"
  top: "cls_loss_32"
  loss_weight: 1
  propagate_down: true
  propagate_down: false
  loss_param {
    ignore_label: -1
    normalize: true
  }
}
layer {
  name: "cls_score_33"
  type: "InnerProduct"
  bottom: "pool5"
  top: "cls_score_33"
  param {
    lr_mult: 1.0
  }
  param {
    lr_mult: 2.0
  }
  inner_product_param {
    num_output: 2
    weight_filler {
      type: "gaussian"
      std: 0.001
    }
    bias_filler {
      type: "constant"
      value: 0
    }
  }
}
layer {
  name: "routing_33"
  type: "Python"
  bottom: "cls_score_33"
  bottom: "labels"
  top: "routing_33"
  python_param {
    module: "routing_layer.layer"
    layer: "RoutingLayer"
    param_str: "\'routing_idx\': 33"
  }
}
layer {
  name: "loss_cls_33"
  type: "SoftmaxWithLoss"
  bottom: "routing_33"
  bottom: "labels_33"
  top: "cls_loss_33"
  loss_weight: 1
  propagate_down: true
  propagate_down: false
  loss_param {
    ignore_label: -1
    normalize: true
  }
}
layer {
  name: "cls_score_34"
  type: "InnerProduct"
  bottom: "pool5"
  top: "cls_score_34"
  param {
    lr_mult: 1.0
  }
  param {
    lr_mult: 2.0
  }
  inner_product_param {
    num_output: 13
    weight_filler {
      type: "gaussian"
      std: 0.001
    }
    bias_filler {
      type: "constant"
      value: 0
    }
  }
}
layer {
  name: "routing_34"
  type: "Python"
  bottom: "cls_score_34"
  bottom: "labels"
  top: "routing_34"
  python_param {
    module: "routing_layer.layer"
    layer: "RoutingLayer"
    param_str: "\'routing_idx\': 34"
  }
}
layer {
  name: "loss_cls_34"
  type: "SoftmaxWithLoss"
  bottom: "routing_34"
  bottom: "labels_34"
  top: "cls_loss_34"
  loss_weight: 1
  propagate_down: true
  propagate_down: false
  loss_param {
    ignore_label: -1
    normalize: true
  }
}
layer {
  name: "cls_score_35"
  type: "InnerProduct"
  bottom: "pool5"
  top: "cls_score_35"
  param {
    lr_mult: 1.0
  }
  param {
    lr_mult: 2.0
  }
  inner_product_param {
    num_output: 3
    weight_filler {
      type: "gaussian"
      std: 0.001
    }
    bias_filler {
      type: "constant"
      value: 0
    }
  }
}
layer {
  name: "routing_35"
  type: "Python"
  bottom: "cls_score_35"
  bottom: "labels"
  top: "routing_35"
  python_param {
    module: "routing_layer.layer"
    layer: "RoutingLayer"
    param_str: "\'routing_idx\': 35"
  }
}
layer {
  name: "loss_cls_35"
  type: "SoftmaxWithLoss"
  bottom: "routing_35"
  bottom: "labels_35"
  top: "cls_loss_35"
  loss_weight: 1
  propagate_down: true
  propagate_down: false
  loss_param {
    ignore_label: -1
    normalize: true
  }
}
layer {
  name: "cls_score_36"
  type: "InnerProduct"
  bottom: "pool5"
  top: "cls_score_36"
  param {
    lr_mult: 1.0
  }
  param {
    lr_mult: 2.0
  }
  inner_product_param {
    num_output: 3
    weight_filler {
      type: "gaussian"
      std: 0.001
    }
    bias_filler {
      type: "constant"
      value: 0
    }
  }
}
layer {
  name: "routing_36"
  type: "Python"
  bottom: "cls_score_36"
  bottom: "labels"
  top: "routing_36"
  python_param {
    module: "routing_layer.layer"
    layer: "RoutingLayer"
    param_str: "\'routing_idx\': 36"
  }
}
layer {
  name: "loss_cls_36"
  type: "SoftmaxWithLoss"
  bottom: "routing_36"
  bottom: "labels_36"
  top: "cls_loss_36"
  loss_weight: 1
  propagate_down: true
  propagate_down: false
  loss_param {
    ignore_label: -1
    normalize: true
  }
}
layer {
  name: "cls_score_37"
  type: "InnerProduct"
  bottom: "pool5"
  top: "cls_score_37"
  param {
    lr_mult: 1.0
  }
  param {
    lr_mult: 2.0
  }
  inner_product_param {
    num_output: 4
    weight_filler {
      type: "gaussian"
      std: 0.001
    }
    bias_filler {
      type: "constant"
      value: 0
    }
  }
}
layer {
  name: "routing_37"
  type: "Python"
  bottom: "cls_score_37"
  bottom: "labels"
  top: "routing_37"
  python_param {
    module: "routing_layer.layer"
    layer: "RoutingLayer"
    param_str: "\'routing_idx\': 37"
  }
}
layer {
  name: "loss_cls_37"
  type: "SoftmaxWithLoss"
  bottom: "routing_37"
  bottom: "labels_37"
  top: "cls_loss_37"
  loss_weight: 1
  propagate_down: true
  propagate_down: false
  loss_param {
    ignore_label: -1
    normalize: true
  }
}
layer {
  name: "cls_score_38"
  type: "InnerProduct"
  bottom: "pool5"
  top: "cls_score_38"
  param {
    lr_mult: 1.0
  }
  param {
    lr_mult: 2.0
  }
  inner_product_param {
    num_output: 6
    weight_filler {
      type: "gaussian"
      std: 0.001
    }
    bias_filler {
      type: "constant"
      value: 0
    }
  }
}
layer {
  name: "routing_38"
  type: "Python"
  bottom: "cls_score_38"
  bottom: "labels"
  top: "routing_38"
  python_param {
    module: "routing_layer.layer"
    layer: "RoutingLayer"
    param_str: "\'routing_idx\': 38"
  }
}
layer {
  name: "loss_cls_38"
  type: "SoftmaxWithLoss"
  bottom: "routing_38"
  bottom: "labels_38"
  top: "cls_loss_38"
  loss_weight: 1
  propagate_down: true
  propagate_down: false
  loss_param {
    ignore_label: -1
    normalize: true
  }
}
layer {
  name: "cls_score_39"
  type: "InnerProduct"
  bottom: "pool5"
  top: "cls_score_39"
  param {
    lr_mult: 1.0
  }
  param {
    lr_mult: 2.0
  }
  inner_product_param {
    num_output: 6
    weight_filler {
      type: "gaussian"
      std: 0.001
    }
    bias_filler {
      type: "constant"
      value: 0
    }
  }
}
layer {
  name: "routing_39"
  type: "Python"
  bottom: "cls_score_39"
  bottom: "labels"
  top: "routing_39"
  python_param {
    module: "routing_layer.layer"
    layer: "RoutingLayer"
    param_str: "\'routing_idx\': 39"
  }
}
layer {
  name: "loss_cls_39"
  type: "SoftmaxWithLoss"
  bottom: "routing_39"
  bottom: "labels_39"
  top: "cls_loss_39"
  loss_weight: 1
  propagate_down: true
  propagate_down: false
  loss_param {
    ignore_label: -1
    normalize: true
  }
}
layer {
  name: "cls_score_40"
  type: "InnerProduct"
  bottom: "pool5"
  top: "cls_score_40"
  param {
    lr_mult: 1.0
  }
  param {
    lr_mult: 2.0
  }
  inner_product_param {
    num_output: 8
    weight_filler {
      type: "gaussian"
      std: 0.001
    }
    bias_filler {
      type: "constant"
      value: 0
    }
  }
}
layer {
  name: "routing_40"
  type: "Python"
  bottom: "cls_score_40"
  bottom: "labels"
  top: "routing_40"
  python_param {
    module: "routing_layer.layer"
    layer: "RoutingLayer"
    param_str: "\'routing_idx\': 40"
  }
}
layer {
  name: "loss_cls_40"
  type: "SoftmaxWithLoss"
  bottom: "routing_40"
  bottom: "labels_40"
  top: "cls_loss_40"
  loss_weight: 1
  propagate_down: true
  propagate_down: false
  loss_param {
    ignore_label: -1
    normalize: true
  }
}
layer {
  name: "cls_score_43"
  type: "InnerProduct"
  bottom: "pool5"
  top: "cls_score_43"
  param {
    lr_mult: 1.0
  }
  param {
    lr_mult: 2.0
  }
  inner_product_param {
    num_output: 5
    weight_filler {
      type: "gaussian"
      std: 0.001
    }
    bias_filler {
      type: "constant"
      value: 0
    }
  }
}
layer {
  name: "routing_43"
  type: "Python"
  bottom: "cls_score_43"
  bottom: "labels"
  top: "routing_43"
  python_param {
    module: "routing_layer.layer"
    layer: "RoutingLayer"
    param_str: "\'routing_idx\': 43"
  }
}
layer {
  name: "loss_cls_43"
  type: "SoftmaxWithLoss"
  bottom: "routing_43"
  bottom: "labels_43"
  top: "cls_loss_43"
  loss_weight: 1
  propagate_down: true
  propagate_down: false
  loss_param {
    ignore_label: -1
    normalize: true
  }
}
layer {
  name: "cls_score_44"
  type: "InnerProduct"
  bottom: "pool5"
  top: "cls_score_44"
  param {
    lr_mult: 1.0
  }
  param {
    lr_mult: 2.0
  }
  inner_product_param {
    num_output: 4
    weight_filler {
      type: "gaussian"
      std: 0.001
    }
    bias_filler {
      type: "constant"
      value: 0
    }
  }
}
layer {
  name: "routing_44"
  type: "Python"
  bottom: "cls_score_44"
  bottom: "labels"
  top: "routing_44"
  python_param {
    module: "routing_layer.layer"
    layer: "RoutingLayer"
    param_str: "\'routing_idx\': 44"
  }
}
layer {
  name: "loss_cls_44"
  type: "SoftmaxWithLoss"
  bottom: "routing_44"
  bottom: "labels_44"
  top: "cls_loss_44"
  loss_weight: 1
  propagate_down: true
  propagate_down: false
  loss_param {
    ignore_label: -1
    normalize: true
  }
}
layer {
  name: "cls_score_47"
  type: "InnerProduct"
  bottom: "pool5"
  top: "cls_score_47"
  param {
    lr_mult: 1.0
  }
  param {
    lr_mult: 2.0
  }
  inner_product_param {
    num_output: 5
    weight_filler {
      type: "gaussian"
      std: 0.001
    }
    bias_filler {
      type: "constant"
      value: 0
    }
  }
}
layer {
  name: "routing_47"
  type: "Python"
  bottom: "cls_score_47"
  bottom: "labels"
  top: "routing_47"
  python_param {
    module: "routing_layer.layer"
    layer: "RoutingLayer"
    param_str: "\'routing_idx\': 47"
  }
}
layer {
  name: "loss_cls_47"
  type: "SoftmaxWithLoss"
  bottom: "routing_47"
  bottom: "labels_47"
  top: "cls_loss_47"
  loss_weight: 1
  propagate_down: true
  propagate_down: false
  loss_param {
    ignore_label: -1
    normalize: true
  }
}
layer {
  name: "cls_score_48"
  type: "InnerProduct"
  bottom: "pool5"
  top: "cls_score_48"
  param {
    lr_mult: 1.0
  }
  param {
    lr_mult: 2.0
  }
  inner_product_param {
    num_output: 3
    weight_filler {
      type: "gaussian"
      std: 0.001
    }
    bias_filler {
      type: "constant"
      value: 0
    }
  }
}
layer {
  name: "routing_48"
  type: "Python"
  bottom: "cls_score_48"
  bottom: "labels"
  top: "routing_48"
  python_param {
    module: "routing_layer.layer"
    layer: "RoutingLayer"
    param_str: "\'routing_idx\': 48"
  }
}
layer {
  name: "loss_cls_48"
  type: "SoftmaxWithLoss"
  bottom: "routing_48"
  bottom: "labels_48"
  top: "cls_loss_48"
  loss_weight: 1
  propagate_down: true
  propagate_down: false
  loss_param {
    ignore_label: -1
    normalize: true
  }
}
layer {
  name: "cls_score_50"
  type: "InnerProduct"
  bottom: "pool5"
  top: "cls_score_50"
  param {
    lr_mult: 1.0
  }
  param {
    lr_mult: 2.0
  }
  inner_product_param {
    num_output: 3
    weight_filler {
      type: "gaussian"
      std: 0.001
    }
    bias_filler {
      type: "constant"
      value: 0
    }
  }
}
layer {
  name: "routing_50"
  type: "Python"
  bottom: "cls_score_50"
  bottom: "labels"
  top: "routing_50"
  python_param {
    module: "routing_layer.layer"
    layer: "RoutingLayer"
    param_str: "\'routing_idx\': 50"
  }
}
layer {
  name: "loss_cls_50"
  type: "SoftmaxWithLoss"
  bottom: "routing_50"
  bottom: "labels_50"
  top: "cls_loss_50"
  loss_weight: 1
  propagate_down: true
  propagate_down: false
  loss_param {
    ignore_label: -1
    normalize: true
  }
}
layer {
  name: "cls_score_53"
  type: "InnerProduct"
  bottom: "pool5"
  top: "cls_score_53"
  param {
    lr_mult: 1.0
  }
  param {
    lr_mult: 2.0
  }
  inner_product_param {
    num_output: 4
    weight_filler {
      type: "gaussian"
      std: 0.001
    }
    bias_filler {
      type: "constant"
      value: 0
    }
  }
}
layer {
  name: "routing_53"
  type: "Python"
  bottom: "cls_score_53"
  bottom: "labels"
  top: "routing_53"
  python_param {
    module: "routing_layer.layer"
    layer: "RoutingLayer"
    param_str: "\'routing_idx\': 53"
  }
}
layer {
  name: "loss_cls_53"
  type: "SoftmaxWithLoss"
  bottom: "routing_53"
  bottom: "labels_53"
  top: "cls_loss_53"
  loss_weight: 1
  propagate_down: true
  propagate_down: false
  loss_param {
    ignore_label: -1
    normalize: true
  }
}
layer {
  name: "cls_score_61"
  type: "InnerProduct"
  bottom: "pool5"
  top: "cls_score_61"
  param {
    lr_mult: 1.0
  }
  param {
    lr_mult: 2.0
  }
  inner_product_param {
    num_output: 4
    weight_filler {
      type: "gaussian"
      std: 0.001
    }
    bias_filler {
      type: "constant"
      value: 0
    }
  }
}
layer {
  name: "routing_61"
  type: "Python"
  bottom: "cls_score_61"
  bottom: "labels"
  top: "routing_61"
  python_param {
    module: "routing_layer.layer"
    layer: "RoutingLayer"
    param_str: "\'routing_idx\': 61"
  }
}
layer {
  name: "loss_cls_61"
  type: "SoftmaxWithLoss"
  bottom: "routing_61"
  bottom: "labels_61"
  top: "cls_loss_61"
  loss_weight: 1
  propagate_down: true
  propagate_down: false
  loss_param {
    ignore_label: -1
    normalize: true
  }
}
layer {
  name: "cls_score_63"
  type: "InnerProduct"
  bottom: "pool5"
  top: "cls_score_63"
  param {
    lr_mult: 1.0
  }
  param {
    lr_mult: 2.0
  }
  inner_product_param {
    num_output: 2
    weight_filler {
      type: "gaussian"
      std: 0.001
    }
    bias_filler {
      type: "constant"
      value: 0
    }
  }
}
layer {
  name: "routing_63"
  type: "Python"
  bottom: "cls_score_63"
  bottom: "labels"
  top: "routing_63"
  python_param {
    module: "routing_layer.layer"
    layer: "RoutingLayer"
    param_str: "\'routing_idx\': 63"
  }
}
layer {
  name: "loss_cls_63"
  type: "SoftmaxWithLoss"
  bottom: "routing_63"
  bottom: "labels_63"
  top: "cls_loss_63"
  loss_weight: 1
  propagate_down: true
  propagate_down: false
  loss_param {
    ignore_label: -1
    normalize: true
  }
}
layer {
  name: "cls_score_65"
  type: "InnerProduct"
  bottom: "pool5"
  top: "cls_score_65"
  param {
    lr_mult: 1.0
  }
  param {
    lr_mult: 2.0
  }
  inner_product_param {
    num_output: 2
    weight_filler {
      type: "gaussian"
      std: 0.001
    }
    bias_filler {
      type: "constant"
      value: 0
    }
  }
}
layer {
  name: "routing_65"
  type: "Python"
  bottom: "cls_score_65"
  bottom: "labels"
  top: "routing_65"
  python_param {
    module: "routing_layer.layer"
    layer: "RoutingLayer"
    param_str: "\'routing_idx\': 65"
  }
}
layer {
  name: "loss_cls_65"
  type: "SoftmaxWithLoss"
  bottom: "routing_65"
  bottom: "labels_65"
  top: "cls_loss_65"
  loss_weight: 1
  propagate_down: true
  propagate_down: false
  loss_param {
    ignore_label: -1
    normalize: true
  }
}
layer {
  name: "cls_score_66"
  type: "InnerProduct"
  bottom: "pool5"
  top: "cls_score_66"
  param {
    lr_mult: 1.0
  }
  param {
    lr_mult: 2.0
  }
  inner_product_param {
    num_output: 2
    weight_filler {
      type: "gaussian"
      std: 0.001
    }
    bias_filler {
      type: "constant"
      value: 0
    }
  }
}
layer {
  name: "routing_66"
  type: "Python"
  bottom: "cls_score_66"
  bottom: "labels"
  top: "routing_66"
  python_param {
    module: "routing_layer.layer"
    layer: "RoutingLayer"
    param_str: "\'routing_idx\': 66"
  }
}
layer {
  name: "loss_cls_66"
  type: "SoftmaxWithLoss"
  bottom: "routing_66"
  bottom: "labels_66"
  top: "cls_loss_66"
  loss_weight: 1
  propagate_down: true
  propagate_down: false
  loss_param {
    ignore_label: -1
    normalize: true
  }
}
layer {
  name: "cls_score_67"
  type: "InnerProduct"
  bottom: "pool5"
  top: "cls_score_67"
  param {
    lr_mult: 1.0
  }
  param {
    lr_mult: 2.0
  }
  inner_product_param {
    num_output: 10
    weight_filler {
      type: "gaussian"
      std: 0.001
    }
    bias_filler {
      type: "constant"
      value: 0
    }
  }
}
layer {
  name: "routing_67"
  type: "Python"
  bottom: "cls_score_67"
  bottom: "labels"
  top: "routing_67"
  python_param {
    module: "routing_layer.layer"
    layer: "RoutingLayer"
    param_str: "\'routing_idx\': 67"
  }
}
layer {
  name: "loss_cls_67"
  type: "SoftmaxWithLoss"
  bottom: "routing_67"
  bottom: "labels_67"
  top: "cls_loss_67"
  loss_weight: 1
  propagate_down: true
  propagate_down: false
  loss_param {
    ignore_label: -1
    normalize: true
  }
}
layer {
  name: "cls_score_68"
  type: "InnerProduct"
  bottom: "pool5"
  top: "cls_score_68"
  param {
    lr_mult: 1.0
  }
  param {
    lr_mult: 2.0
  }
  inner_product_param {
    num_output: 2
    weight_filler {
      type: "gaussian"
      std: 0.001
    }
    bias_filler {
      type: "constant"
      value: 0
    }
  }
}
layer {
  name: "routing_68"
  type: "Python"
  bottom: "cls_score_68"
  bottom: "labels"
  top: "routing_68"
  python_param {
    module: "routing_layer.layer"
    layer: "RoutingLayer"
    param_str: "\'routing_idx\': 68"
  }
}
layer {
  name: "loss_cls_68"
  type: "SoftmaxWithLoss"
  bottom: "routing_68"
  bottom: "labels_68"
  top: "cls_loss_68"
  loss_weight: 1
  propagate_down: true
  propagate_down: false
  loss_param {
    ignore_label: -1
    normalize: true
  }
}
layer {
  name: "cls_score_69"
  type: "InnerProduct"
  bottom: "pool5"
  top: "cls_score_69"
  param {
    lr_mult: 1.0
  }
  param {
    lr_mult: 2.0
  }
  inner_product_param {
    num_output: 3
    weight_filler {
      type: "gaussian"
      std: 0.001
    }
    bias_filler {
      type: "constant"
      value: 0
    }
  }
}
layer {
  name: "routing_69"
  type: "Python"
  bottom: "cls_score_69"
  bottom: "labels"
  top: "routing_69"
  python_param {
    module: "routing_layer.layer"
    layer: "RoutingLayer"
    param_str: "\'routing_idx\': 69"
  }
}
layer {
  name: "loss_cls_69"
  type: "SoftmaxWithLoss"
  bottom: "routing_69"
  bottom: "labels_69"
  top: "cls_loss_69"
  loss_weight: 1
  propagate_down: true
  propagate_down: false
  loss_param {
    ignore_label: -1
    normalize: true
  }
}
layer {
  name: "cls_score_72"
  type: "InnerProduct"
  bottom: "pool5"
  top: "cls_score_72"
  param {
    lr_mult: 1.0
  }
  param {
    lr_mult: 2.0
  }
  inner_product_param {
    num_output: 2
    weight_filler {
      type: "gaussian"
      std: 0.001
    }
    bias_filler {
      type: "constant"
      value: 0
    }
  }
}
layer {
  name: "routing_72"
  type: "Python"
  bottom: "cls_score_72"
  bottom: "labels"
  top: "routing_72"
  python_param {
    module: "routing_layer.layer"
    layer: "RoutingLayer"
    param_str: "\'routing_idx\': 72"
  }
}
layer {
  name: "loss_cls_72"
  type: "SoftmaxWithLoss"
  bottom: "routing_72"
  bottom: "labels_72"
  top: "cls_loss_72"
  loss_weight: 1
  propagate_down: true
  propagate_down: false
  loss_param {
    ignore_label: -1
    normalize: true
  }
}
layer {
  name: "cls_score_76"
  type: "InnerProduct"
  bottom: "pool5"
  top: "cls_score_76"
  param {
    lr_mult: 1.0
  }
  param {
    lr_mult: 2.0
  }
  inner_product_param {
    num_output: 3
    weight_filler {
      type: "gaussian"
      std: 0.001
    }
    bias_filler {
      type: "constant"
      value: 0
    }
  }
}
layer {
  name: "routing_76"
  type: "Python"
  bottom: "cls_score_76"
  bottom: "labels"
  top: "routing_76"
  python_param {
    module: "routing_layer.layer"
    layer: "RoutingLayer"
    param_str: "\'routing_idx\': 76"
  }
}
layer {
  name: "loss_cls_76"
  type: "SoftmaxWithLoss"
  bottom: "routing_76"
  bottom: "labels_76"
  top: "cls_loss_76"
  loss_weight: 1
  propagate_down: true
  propagate_down: false
  loss_param {
    ignore_label: -1
    normalize: true
  }
}
layer {
  name: "cls_score_80"
  type: "InnerProduct"
  bottom: "pool5"
  top: "cls_score_80"
  param {
    lr_mult: 1.0
  }
  param {
    lr_mult: 2.0
  }
  inner_product_param {
    num_output: 2
    weight_filler {
      type: "gaussian"
      std: 0.001
    }
    bias_filler {
      type: "constant"
      value: 0
    }
  }
}
layer {
  name: "routing_80"
  type: "Python"
  bottom: "cls_score_80"
  bottom: "labels"
  top: "routing_80"
  python_param {
    module: "routing_layer.layer"
    layer: "RoutingLayer"
    param_str: "\'routing_idx\': 80"
  }
}
layer {
  name: "loss_cls_80"
  type: "SoftmaxWithLoss"
  bottom: "routing_80"
  bottom: "labels_80"
  top: "cls_loss_80"
  loss_weight: 1
  propagate_down: true
  propagate_down: false
  loss_param {
    ignore_label: -1
    normalize: true
  }
}
layer {
  name: "cls_score_81"
  type: "InnerProduct"
  bottom: "pool5"
  top: "cls_score_81"
  param {
    lr_mult: 1.0
  }
  param {
    lr_mult: 2.0
  }
  inner_product_param {
    num_output: 3
    weight_filler {
      type: "gaussian"
      std: 0.001
    }
    bias_filler {
      type: "constant"
      value: 0
    }
  }
}
layer {
  name: "routing_81"
  type: "Python"
  bottom: "cls_score_81"
  bottom: "labels"
  top: "routing_81"
  python_param {
    module: "routing_layer.layer"
    layer: "RoutingLayer"
    param_str: "\'routing_idx\': 81"
  }
}
layer {
  name: "loss_cls_81"
  type: "SoftmaxWithLoss"
  bottom: "routing_81"
  bottom: "labels_81"
  top: "cls_loss_81"
  loss_weight: 1
  propagate_down: true
  propagate_down: false
  loss_param {
    ignore_label: -1
    normalize: true
  }
}
layer {
  name: "cls_score_86"
  type: "InnerProduct"
  bottom: "pool5"
  top: "cls_score_86"
  param {
    lr_mult: 1.0
  }
  param {
    lr_mult: 2.0
  }
  inner_product_param {
    num_output: 5
    weight_filler {
      type: "gaussian"
      std: 0.001
    }
    bias_filler {
      type: "constant"
      value: 0
    }
  }
}
layer {
  name: "routing_86"
  type: "Python"
  bottom: "cls_score_86"
  bottom: "labels"
  top: "routing_86"
  python_param {
    module: "routing_layer.layer"
    layer: "RoutingLayer"
    param_str: "\'routing_idx\': 86"
  }
}
layer {
  name: "loss_cls_86"
  type: "SoftmaxWithLoss"
  bottom: "routing_86"
  bottom: "labels_86"
  top: "cls_loss_86"
  loss_weight: 1
  propagate_down: true
  propagate_down: false
  loss_param {
    ignore_label: -1
    normalize: true
  }
}
layer {
  name: "cls_score_90"
  type: "InnerProduct"
  bottom: "pool5"
  top: "cls_score_90"
  param {
    lr_mult: 1.0
  }
  param {
    lr_mult: 2.0
  }
  inner_product_param {
    num_output: 3
    weight_filler {
      type: "gaussian"
      std: 0.001
    }
    bias_filler {
      type: "constant"
      value: 0
    }
  }
}
layer {
  name: "routing_90"
  type: "Python"
  bottom: "cls_score_90"
  bottom: "labels"
  top: "routing_90"
  python_param {
    module: "routing_layer.layer"
    layer: "RoutingLayer"
    param_str: "\'routing_idx\': 90"
  }
}
layer {
  name: "loss_cls_90"
  type: "SoftmaxWithLoss"
  bottom: "routing_90"
  bottom: "labels_90"
  top: "cls_loss_90"
  loss_weight: 1
  propagate_down: true
  propagate_down: false
  loss_param {
    ignore_label: -1
    normalize: true
  }
}
layer {
  name: "cls_score_93"
  type: "InnerProduct"
  bottom: "pool5"
  top: "cls_score_93"
  param {
    lr_mult: 1.0
  }
  param {
    lr_mult: 2.0
  }
  inner_product_param {
    num_output: 2
    weight_filler {
      type: "gaussian"
      std: 0.001
    }
    bias_filler {
      type: "constant"
      value: 0
    }
  }
}
layer {
  name: "routing_93"
  type: "Python"
  bottom: "cls_score_93"
  bottom: "labels"
  top: "routing_93"
  python_param {
    module: "routing_layer.layer"
    layer: "RoutingLayer"
    param_str: "\'routing_idx\': 93"
  }
}
layer {
  name: "loss_cls_93"
  type: "SoftmaxWithLoss"
  bottom: "routing_93"
  bottom: "labels_93"
  top: "cls_loss_93"
  loss_weight: 1
  propagate_down: true
  propagate_down: false
  loss_param {
    ignore_label: -1
    normalize: true
  }
}
layer {
  name: "cls_score_95"
  type: "InnerProduct"
  bottom: "pool5"
  top: "cls_score_95"
  param {
    lr_mult: 1.0
  }
  param {
    lr_mult: 2.0
  }
  inner_product_param {
    num_output: 2
    weight_filler {
      type: "gaussian"
      std: 0.001
    }
    bias_filler {
      type: "constant"
      value: 0
    }
  }
}
layer {
  name: "routing_95"
  type: "Python"
  bottom: "cls_score_95"
  bottom: "labels"
  top: "routing_95"
  python_param {
    module: "routing_layer.layer"
    layer: "RoutingLayer"
    param_str: "\'routing_idx\': 95"
  }
}
layer {
  name: "loss_cls_95"
  type: "SoftmaxWithLoss"
  bottom: "routing_95"
  bottom: "labels_95"
  top: "cls_loss_95"
  loss_weight: 1
  propagate_down: true
  propagate_down: false
  loss_param {
    ignore_label: -1
    normalize: true
  }
}
layer {
  name: "cls_score_96"
  type: "InnerProduct"
  bottom: "pool5"
  top: "cls_score_96"
  param {
    lr_mult: 1.0
  }
  param {
    lr_mult: 2.0
  }
  inner_product_param {
    num_output: 2
    weight_filler {
      type: "gaussian"
      std: 0.001
    }
    bias_filler {
      type: "constant"
      value: 0
    }
  }
}
layer {
  name: "routing_96"
  type: "Python"
  bottom: "cls_score_96"
  bottom: "labels"
  top: "routing_96"
  python_param {
    module: "routing_layer.layer"
    layer: "RoutingLayer"
    param_str: "\'routing_idx\': 96"
  }
}
layer {
  name: "loss_cls_96"
  type: "SoftmaxWithLoss"
  bottom: "routing_96"
  bottom: "labels_96"
  top: "cls_loss_96"
  loss_weight: 1
  propagate_down: true
  propagate_down: false
  loss_param {
    ignore_label: -1
    normalize: true
  }
}
layer {
  name: "cls_score_98"
  type: "InnerProduct"
  bottom: "pool5"
  top: "cls_score_98"
  param {
    lr_mult: 1.0
  }
  param {
    lr_mult: 2.0
  }
  inner_product_param {
    num_output: 2
    weight_filler {
      type: "gaussian"
      std: 0.001
    }
    bias_filler {
      type: "constant"
      value: 0
    }
  }
}
layer {
  name: "routing_98"
  type: "Python"
  bottom: "cls_score_98"
  bottom: "labels"
  top: "routing_98"
  python_param {
    module: "routing_layer.layer"
    layer: "RoutingLayer"
    param_str: "\'routing_idx\': 98"
  }
}
layer {
  name: "loss_cls_98"
  type: "SoftmaxWithLoss"
  bottom: "routing_98"
  bottom: "labels_98"
  top: "cls_loss_98"
  loss_weight: 1
  propagate_down: true
  propagate_down: false
  loss_param {
    ignore_label: -1
    normalize: true
  }
}
layer {
  name: "cls_score_100"
  type: "InnerProduct"
  bottom: "pool5"
  top: "cls_score_100"
  param {
    lr_mult: 1.0
  }
  param {
    lr_mult: 2.0
  }
  inner_product_param {
    num_output: 4
    weight_filler {
      type: "gaussian"
      std: 0.001
    }
    bias_filler {
      type: "constant"
      value: 0
    }
  }
}
layer {
  name: "routing_100"
  type: "Python"
  bottom: "cls_score_100"
  bottom: "labels"
  top: "routing_100"
  python_param {
    module: "routing_layer.layer"
    layer: "RoutingLayer"
    param_str: "\'routing_idx\': 100"
  }
}
layer {
  name: "loss_cls_100"
  type: "SoftmaxWithLoss"
  bottom: "routing_100"
  bottom: "labels_100"
  top: "cls_loss_100"
  loss_weight: 1
  propagate_down: true
  propagate_down: false
  loss_param {
    ignore_label: -1
    normalize: true
  }
}
layer {
  name: "cls_score_104"
  type: "InnerProduct"
  bottom: "pool5"
  top: "cls_score_104"
  param {
    lr_mult: 1.0
  }
  param {
    lr_mult: 2.0
  }
  inner_product_param {
    num_output: 2
    weight_filler {
      type: "gaussian"
      std: 0.001
    }
    bias_filler {
      type: "constant"
      value: 0
    }
  }
}
layer {
  name: "routing_104"
  type: "Python"
  bottom: "cls_score_104"
  bottom: "labels"
  top: "routing_104"
  python_param {
    module: "routing_layer.layer"
    layer: "RoutingLayer"
    param_str: "\'routing_idx\': 104"
  }
}
layer {
  name: "loss_cls_104"
  type: "SoftmaxWithLoss"
  bottom: "routing_104"
  bottom: "labels_104"
  top: "cls_loss_104"
  loss_weight: 1
  propagate_down: true
  propagate_down: false
  loss_param {
    ignore_label: -1
    normalize: true
  }
}
layer {
  name: "cls_score_107"
  type: "InnerProduct"
  bottom: "pool5"
  top: "cls_score_107"
  param {
    lr_mult: 1.0
  }
  param {
    lr_mult: 2.0
  }
  inner_product_param {
    num_output: 2
    weight_filler {
      type: "gaussian"
      std: 0.001
    }
    bias_filler {
      type: "constant"
      value: 0
    }
  }
}
layer {
  name: "routing_107"
  type: "Python"
  bottom: "cls_score_107"
  bottom: "labels"
  top: "routing_107"
  python_param {
    module: "routing_layer.layer"
    layer: "RoutingLayer"
    param_str: "\'routing_idx\': 107"
  }
}
layer {
  name: "loss_cls_107"
  type: "SoftmaxWithLoss"
  bottom: "routing_107"
  bottom: "labels_107"
  top: "cls_loss_107"
  loss_weight: 1
  propagate_down: true
  propagate_down: false
  loss_param {
    ignore_label: -1
    normalize: true
  }
}
layer {
  name: "cls_score_111"
  type: "InnerProduct"
  bottom: "pool5"
  top: "cls_score_111"
  param {
    lr_mult: 1.0
  }
  param {
    lr_mult: 2.0
  }
  inner_product_param {
    num_output: 4
    weight_filler {
      type: "gaussian"
      std: 0.001
    }
    bias_filler {
      type: "constant"
      value: 0
    }
  }
}
layer {
  name: "routing_111"
  type: "Python"
  bottom: "cls_score_111"
  bottom: "labels"
  top: "routing_111"
  python_param {
    module: "routing_layer.layer"
    layer: "RoutingLayer"
    param_str: "\'routing_idx\': 111"
  }
}
layer {
  name: "loss_cls_111"
  type: "SoftmaxWithLoss"
  bottom: "routing_111"
  bottom: "labels_111"
  top: "cls_loss_111"
  loss_weight: 1
  propagate_down: true
  propagate_down: false
  loss_param {
    ignore_label: -1
    normalize: true
  }
}
layer {
  name: "cls_score_113"
  type: "InnerProduct"
  bottom: "pool5"
  top: "cls_score_113"
  param {
    lr_mult: 1.0
  }
  param {
    lr_mult: 2.0
  }
  inner_product_param {
    num_output: 3
    weight_filler {
      type: "gaussian"
      std: 0.001
    }
    bias_filler {
      type: "constant"
      value: 0
    }
  }
}
layer {
  name: "routing_113"
  type: "Python"
  bottom: "cls_score_113"
  bottom: "labels"
  top: "routing_113"
  python_param {
    module: "routing_layer.layer"
    layer: "RoutingLayer"
    param_str: "\'routing_idx\': 113"
  }
}
layer {
  name: "loss_cls_113"
  type: "SoftmaxWithLoss"
  bottom: "routing_113"
  bottom: "labels_113"
  top: "cls_loss_113"
  loss_weight: 1
  propagate_down: true
  propagate_down: false
  loss_param {
    ignore_label: -1
    normalize: true
  }
}
layer {
  name: "cls_score_114"
  type: "InnerProduct"
  bottom: "pool5"
  top: "cls_score_114"
  param {
    lr_mult: 1.0
  }
  param {
    lr_mult: 2.0
  }
  inner_product_param {
    num_output: 3
    weight_filler {
      type: "gaussian"
      std: 0.001
    }
    bias_filler {
      type: "constant"
      value: 0
    }
  }
}
layer {
  name: "routing_114"
  type: "Python"
  bottom: "cls_score_114"
  bottom: "labels"
  top: "routing_114"
  python_param {
    module: "routing_layer.layer"
    layer: "RoutingLayer"
    param_str: "\'routing_idx\': 114"
  }
}
layer {
  name: "loss_cls_114"
  type: "SoftmaxWithLoss"
  bottom: "routing_114"
  bottom: "labels_114"
  top: "cls_loss_114"
  loss_weight: 1
  propagate_down: true
  propagate_down: false
  loss_param {
    ignore_label: -1
    normalize: true
  }
}
layer {
  name: "cls_score_115"
  type: "InnerProduct"
  bottom: "pool5"
  top: "cls_score_115"
  param {
    lr_mult: 1.0
  }
  param {
    lr_mult: 2.0
  }
  inner_product_param {
    num_output: 2
    weight_filler {
      type: "gaussian"
      std: 0.001
    }
    bias_filler {
      type: "constant"
      value: 0
    }
  }
}
layer {
  name: "routing_115"
  type: "Python"
  bottom: "cls_score_115"
  bottom: "labels"
  top: "routing_115"
  python_param {
    module: "routing_layer.layer"
    layer: "RoutingLayer"
    param_str: "\'routing_idx\': 115"
  }
}
layer {
  name: "loss_cls_115"
  type: "SoftmaxWithLoss"
  bottom: "routing_115"
  bottom: "labels_115"
  top: "cls_loss_115"
  loss_weight: 1
  propagate_down: true
  propagate_down: false
  loss_param {
    ignore_label: -1
    normalize: true
  }
}
layer {
  name: "cls_score_116"
  type: "InnerProduct"
  bottom: "pool5"
  top: "cls_score_116"
  param {
    lr_mult: 1.0
  }
  param {
    lr_mult: 2.0
  }
  inner_product_param {
    num_output: 3
    weight_filler {
      type: "gaussian"
      std: 0.001
    }
    bias_filler {
      type: "constant"
      value: 0
    }
  }
}
layer {
  name: "routing_116"
  type: "Python"
  bottom: "cls_score_116"
  bottom: "labels"
  top: "routing_116"
  python_param {
    module: "routing_layer.layer"
    layer: "RoutingLayer"
    param_str: "\'routing_idx\': 116"
  }
}
layer {
  name: "loss_cls_116"
  type: "SoftmaxWithLoss"
  bottom: "routing_116"
  bottom: "labels_116"
  top: "cls_loss_116"
  loss_weight: 1
  propagate_down: true
  propagate_down: false
  loss_param {
    ignore_label: -1
    normalize: true
  }
}
layer {
  name: "cls_score_117"
  type: "InnerProduct"
  bottom: "pool5"
  top: "cls_score_117"
  param {
    lr_mult: 1.0
  }
  param {
    lr_mult: 2.0
  }
  inner_product_param {
    num_output: 4
    weight_filler {
      type: "gaussian"
      std: 0.001
    }
    bias_filler {
      type: "constant"
      value: 0
    }
  }
}
layer {
  name: "routing_117"
  type: "Python"
  bottom: "cls_score_117"
  bottom: "labels"
  top: "routing_117"
  python_param {
    module: "routing_layer.layer"
    layer: "RoutingLayer"
    param_str: "\'routing_idx\': 117"
  }
}
layer {
  name: "loss_cls_117"
  type: "SoftmaxWithLoss"
  bottom: "routing_117"
  bottom: "labels_117"
  top: "cls_loss_117"
  loss_weight: 1
  propagate_down: true
  propagate_down: false
  loss_param {
    ignore_label: -1
    normalize: true
  }
}
layer {
  name: "cls_score_118"
  type: "InnerProduct"
  bottom: "pool5"
  top: "cls_score_118"
  param {
    lr_mult: 1.0
  }
  param {
    lr_mult: 2.0
  }
  inner_product_param {
    num_output: 2
    weight_filler {
      type: "gaussian"
      std: 0.001
    }
    bias_filler {
      type: "constant"
      value: 0
    }
  }
}
layer {
  name: "routing_118"
  type: "Python"
  bottom: "cls_score_118"
  bottom: "labels"
  top: "routing_118"
  python_param {
    module: "routing_layer.layer"
    layer: "RoutingLayer"
    param_str: "\'routing_idx\': 118"
  }
}
layer {
  name: "loss_cls_118"
  type: "SoftmaxWithLoss"
  bottom: "routing_118"
  bottom: "labels_118"
  top: "cls_loss_118"
  loss_weight: 1
  propagate_down: true
  propagate_down: false
  loss_param {
    ignore_label: -1
    normalize: true
  }
}
layer {
  name: "cls_score_120"
  type: "InnerProduct"
  bottom: "pool5"
  top: "cls_score_120"
  param {
    lr_mult: 1.0
  }
  param {
    lr_mult: 2.0
  }
  inner_product_param {
    num_output: 2
    weight_filler {
      type: "gaussian"
      std: 0.001
    }
    bias_filler {
      type: "constant"
      value: 0
    }
  }
}
layer {
  name: "routing_120"
  type: "Python"
  bottom: "cls_score_120"
  bottom: "labels"
  top: "routing_120"
  python_param {
    module: "routing_layer.layer"
    layer: "RoutingLayer"
    param_str: "\'routing_idx\': 120"
  }
}
layer {
  name: "loss_cls_120"
  type: "SoftmaxWithLoss"
  bottom: "routing_120"
  bottom: "labels_120"
  top: "cls_loss_120"
  loss_weight: 1
  propagate_down: true
  propagate_down: false
  loss_param {
    ignore_label: -1
    normalize: true
  }
}
layer {
  name: "cls_score_124"
  type: "InnerProduct"
  bottom: "pool5"
  top: "cls_score_124"
  param {
    lr_mult: 1.0
  }
  param {
    lr_mult: 2.0
  }
  inner_product_param {
    num_output: 2
    weight_filler {
      type: "gaussian"
      std: 0.001
    }
    bias_filler {
      type: "constant"
      value: 0
    }
  }
}
layer {
  name: "routing_124"
  type: "Python"
  bottom: "cls_score_124"
  bottom: "labels"
  top: "routing_124"
  python_param {
    module: "routing_layer.layer"
    layer: "RoutingLayer"
    param_str: "\'routing_idx\': 124"
  }
}
layer {
  name: "loss_cls_124"
  type: "SoftmaxWithLoss"
  bottom: "routing_124"
  bottom: "labels_124"
  top: "cls_loss_124"
  loss_weight: 1
  propagate_down: true
  propagate_down: false
  loss_param {
    ignore_label: -1
    normalize: true
  }
}
layer {
  name: "cls_score_125"
  type: "InnerProduct"
  bottom: "pool5"
  top: "cls_score_125"
  param {
    lr_mult: 1.0
  }
  param {
    lr_mult: 2.0
  }
  inner_product_param {
    num_output: 4
    weight_filler {
      type: "gaussian"
      std: 0.001
    }
    bias_filler {
      type: "constant"
      value: 0
    }
  }
}
layer {
  name: "routing_125"
  type: "Python"
  bottom: "cls_score_125"
  bottom: "labels"
  top: "routing_125"
  python_param {
    module: "routing_layer.layer"
    layer: "RoutingLayer"
    param_str: "\'routing_idx\': 125"
  }
}
layer {
  name: "loss_cls_125"
  type: "SoftmaxWithLoss"
  bottom: "routing_125"
  bottom: "labels_125"
  top: "cls_loss_125"
  loss_weight: 1
  propagate_down: true
  propagate_down: false
  loss_param {
    ignore_label: -1
    normalize: true
  }
}
layer {
  name: "cls_score_139"
  type: "InnerProduct"
  bottom: "pool5"
  top: "cls_score_139"
  param {
    lr_mult: 1.0
  }
  param {
    lr_mult: 2.0
  }
  inner_product_param {
    num_output: 2
    weight_filler {
      type: "gaussian"
      std: 0.001
    }
    bias_filler {
      type: "constant"
      value: 0
    }
  }
}
layer {
  name: "routing_139"
  type: "Python"
  bottom: "cls_score_139"
  bottom: "labels"
  top: "routing_139"
  python_param {
    module: "routing_layer.layer"
    layer: "RoutingLayer"
    param_str: "\'routing_idx\': 139"
  }
}
layer {
  name: "loss_cls_139"
  type: "SoftmaxWithLoss"
  bottom: "routing_139"
  bottom: "labels_139"
  top: "cls_loss_139"
  loss_weight: 1
  propagate_down: true
  propagate_down: false
  loss_param {
    ignore_label: -1
    normalize: true
  }
}
layer {
  name: "cls_score_142"
  type: "InnerProduct"
  bottom: "pool5"
  top: "cls_score_142"
  param {
    lr_mult: 1.0
  }
  param {
    lr_mult: 2.0
  }
  inner_product_param {
    num_output: 2
    weight_filler {
      type: "gaussian"
      std: 0.001
    }
    bias_filler {
      type: "constant"
      value: 0
    }
  }
}
layer {
  name: "routing_142"
  type: "Python"
  bottom: "cls_score_142"
  bottom: "labels"
  top: "routing_142"
  python_param {
    module: "routing_layer.layer"
    layer: "RoutingLayer"
    param_str: "\'routing_idx\': 142"
  }
}
layer {
  name: "loss_cls_142"
  type: "SoftmaxWithLoss"
  bottom: "routing_142"
  bottom: "labels_142"
  top: "cls_loss_142"
  loss_weight: 1
  propagate_down: true
  propagate_down: false
  loss_param {
    ignore_label: -1
    normalize: true
  }
}
layer {
  name: "cls_score_150"
  type: "InnerProduct"
  bottom: "pool5"
  top: "cls_score_150"
  param {
    lr_mult: 1.0
  }
  param {
    lr_mult: 2.0
  }
  inner_product_param {
    num_output: 2
    weight_filler {
      type: "gaussian"
      std: 0.001
    }
    bias_filler {
      type: "constant"
      value: 0
    }
  }
}
layer {
  name: "routing_150"
  type: "Python"
  bottom: "cls_score_150"
  bottom: "labels"
  top: "routing_150"
  python_param {
    module: "routing_layer.layer"
    layer: "RoutingLayer"
    param_str: "\'routing_idx\': 150"
  }
}
layer {
  name: "loss_cls_150"
  type: "SoftmaxWithLoss"
  bottom: "routing_150"
  bottom: "labels_150"
  top: "cls_loss_150"
  loss_weight: 1
  propagate_down: true
  propagate_down: false
  loss_param {
    ignore_label: -1
    normalize: true
  }
}
layer {
  name: "cls_score_151"
  type: "InnerProduct"
  bottom: "pool5"
  top: "cls_score_151"
  param {
    lr_mult: 1.0
  }
  param {
    lr_mult: 2.0
  }
  inner_product_param {
    num_output: 3
    weight_filler {
      type: "gaussian"
      std: 0.001
    }
    bias_filler {
      type: "constant"
      value: 0
    }
  }
}
layer {
  name: "routing_151"
  type: "Python"
  bottom: "cls_score_151"
  bottom: "labels"
  top: "routing_151"
  python_param {
    module: "routing_layer.layer"
    layer: "RoutingLayer"
    param_str: "\'routing_idx\': 151"
  }
}
layer {
  name: "loss_cls_151"
  type: "SoftmaxWithLoss"
  bottom: "routing_151"
  bottom: "labels_151"
  top: "cls_loss_151"
  loss_weight: 1
  propagate_down: true
  propagate_down: false
  loss_param {
    ignore_label: -1
    normalize: true
  }
}
layer {
  name: "cls_score_154"
  type: "InnerProduct"
  bottom: "pool5"
  top: "cls_score_154"
  param {
    lr_mult: 1.0
  }
  param {
    lr_mult: 2.0
  }
  inner_product_param {
    num_output: 2
    weight_filler {
      type: "gaussian"
      std: 0.001
    }
    bias_filler {
      type: "constant"
      value: 0
    }
  }
}
layer {
  name: "routing_154"
  type: "Python"
  bottom: "cls_score_154"
  bottom: "labels"
  top: "routing_154"
  python_param {
    module: "routing_layer.layer"
    layer: "RoutingLayer"
    param_str: "\'routing_idx\': 154"
  }
}
layer {
  name: "loss_cls_154"
  type: "SoftmaxWithLoss"
  bottom: "routing_154"
  bottom: "labels_154"
  top: "cls_loss_154"
  loss_weight: 1
  propagate_down: true
  propagate_down: false
  loss_param {
    ignore_label: -1
    normalize: true
  }
}
layer {
  name: "cls_score_164"
  type: "InnerProduct"
  bottom: "pool5"
  top: "cls_score_164"
  param {
    lr_mult: 1.0
  }
  param {
    lr_mult: 2.0
  }
  inner_product_param {
    num_output: 2
    weight_filler {
      type: "gaussian"
      std: 0.001
    }
    bias_filler {
      type: "constant"
      value: 0
    }
  }
}
layer {
  name: "routing_164"
  type: "Python"
  bottom: "cls_score_164"
  bottom: "labels"
  top: "routing_164"
  python_param {
    module: "routing_layer.layer"
    layer: "RoutingLayer"
    param_str: "\'routing_idx\': 164"
  }
}
layer {
  name: "loss_cls_164"
  type: "SoftmaxWithLoss"
  bottom: "routing_164"
  bottom: "labels_164"
  top: "cls_loss_164"
  loss_weight: 1
  propagate_down: true
  propagate_down: false
  loss_param {
    ignore_label: -1
    normalize: true
  }
}
layer {
  name: "cls_score_168"
  type: "InnerProduct"
  bottom: "pool5"
  top: "cls_score_168"
  param {
    lr_mult: 1.0
  }
  param {
    lr_mult: 2.0
  }
  inner_product_param {
    num_output: 8
    weight_filler {
      type: "gaussian"
      std: 0.001
    }
    bias_filler {
      type: "constant"
      value: 0
    }
  }
}
layer {
  name: "routing_168"
  type: "Python"
  bottom: "cls_score_168"
  bottom: "labels"
  top: "routing_168"
  python_param {
    module: "routing_layer.layer"
    layer: "RoutingLayer"
    param_str: "\'routing_idx\': 168"
  }
}
layer {
  name: "loss_cls_168"
  type: "SoftmaxWithLoss"
  bottom: "routing_168"
  bottom: "labels_168"
  top: "cls_loss_168"
  loss_weight: 1
  propagate_down: true
  propagate_down: false
  loss_param {
    ignore_label: -1
    normalize: true
  }
}
layer {
  name: "cls_score_169"
  type: "InnerProduct"
  bottom: "pool5"
  top: "cls_score_169"
  param {
    lr_mult: 1.0
  }
  param {
    lr_mult: 2.0
  }
  inner_product_param {
    num_output: 2
    weight_filler {
      type: "gaussian"
      std: 0.001
    }
    bias_filler {
      type: "constant"
      value: 0
    }
  }
}
layer {
  name: "routing_169"
  type: "Python"
  bottom: "cls_score_169"
  bottom: "labels"
  top: "routing_169"
  python_param {
    module: "routing_layer.layer"
    layer: "RoutingLayer"
    param_str: "\'routing_idx\': 169"
  }
}
layer {
  name: "loss_cls_169"
  type: "SoftmaxWithLoss"
  bottom: "routing_169"
  bottom: "labels_169"
  top: "cls_loss_169"
  loss_weight: 1
  propagate_down: true
  propagate_down: false
  loss_param {
    ignore_label: -1
    normalize: true
  }
}
layer {
  name: "cls_score_170"
  type: "InnerProduct"
  bottom: "pool5"
  top: "cls_score_170"
  param {
    lr_mult: 1.0
  }
  param {
    lr_mult: 2.0
  }
  inner_product_param {
    num_output: 4
    weight_filler {
      type: "gaussian"
      std: 0.001
    }
    bias_filler {
      type: "constant"
      value: 0
    }
  }
}
layer {
  name: "routing_170"
  type: "Python"
  bottom: "cls_score_170"
  bottom: "labels"
  top: "routing_170"
  python_param {
    module: "routing_layer.layer"
    layer: "RoutingLayer"
    param_str: "\'routing_idx\': 170"
  }
}
layer {
  name: "loss_cls_170"
  type: "SoftmaxWithLoss"
  bottom: "routing_170"
  bottom: "labels_170"
  top: "cls_loss_170"
  loss_weight: 1
  propagate_down: true
  propagate_down: false
  loss_param {
    ignore_label: -1
    normalize: true
  }
}
layer {
  name: "cls_score_172"
  type: "InnerProduct"
  bottom: "pool5"
  top: "cls_score_172"
  param {
    lr_mult: 1.0
  }
  param {
    lr_mult: 2.0
  }
  inner_product_param {
    num_output: 2
    weight_filler {
      type: "gaussian"
      std: 0.001
    }
    bias_filler {
      type: "constant"
      value: 0
    }
  }
}
layer {
  name: "routing_172"
  type: "Python"
  bottom: "cls_score_172"
  bottom: "labels"
  top: "routing_172"
  python_param {
    module: "routing_layer.layer"
    layer: "RoutingLayer"
    param_str: "\'routing_idx\': 172"
  }
}
layer {
  name: "loss_cls_172"
  type: "SoftmaxWithLoss"
  bottom: "routing_172"
  bottom: "labels_172"
  top: "cls_loss_172"
  loss_weight: 1
  propagate_down: true
  propagate_down: false
  loss_param {
    ignore_label: -1
    normalize: true
  }
}
layer {
  name: "cls_score_185"
  type: "InnerProduct"
  bottom: "pool5"
  top: "cls_score_185"
  param {
    lr_mult: 1.0
  }
  param {
    lr_mult: 2.0
  }
  inner_product_param {
    num_output: 2
    weight_filler {
      type: "gaussian"
      std: 0.001
    }
    bias_filler {
      type: "constant"
      value: 0
    }
  }
}
layer {
  name: "routing_185"
  type: "Python"
  bottom: "cls_score_185"
  bottom: "labels"
  top: "routing_185"
  python_param {
    module: "routing_layer.layer"
    layer: "RoutingLayer"
    param_str: "\'routing_idx\': 185"
  }
}
layer {
  name: "loss_cls_185"
  type: "SoftmaxWithLoss"
  bottom: "routing_185"
  bottom: "labels_185"
  top: "cls_loss_185"
  loss_weight: 1
  propagate_down: true
  propagate_down: false
  loss_param {
    ignore_label: -1
    normalize: true
  }
}
layer {
  name: "cls_score_186"
  type: "InnerProduct"
  bottom: "pool5"
  top: "cls_score_186"
  param {
    lr_mult: 1.0
  }
  param {
    lr_mult: 2.0
  }
  inner_product_param {
    num_output: 3
    weight_filler {
      type: "gaussian"
      std: 0.001
    }
    bias_filler {
      type: "constant"
      value: 0
    }
  }
}
layer {
  name: "routing_186"
  type: "Python"
  bottom: "cls_score_186"
  bottom: "labels"
  top: "routing_186"
  python_param {
    module: "routing_layer.layer"
    layer: "RoutingLayer"
    param_str: "\'routing_idx\': 186"
  }
}
layer {
  name: "loss_cls_186"
  type: "SoftmaxWithLoss"
  bottom: "routing_186"
  bottom: "labels_186"
  top: "cls_loss_186"
  loss_weight: 1
  propagate_down: true
  propagate_down: false
  loss_param {
    ignore_label: -1
    normalize: true
  }
}
layer {
  name: "cls_score_192"
  type: "InnerProduct"
  bottom: "pool5"
  top: "cls_score_192"
  param {
    lr_mult: 1.0
  }
  param {
    lr_mult: 2.0
  }
  inner_product_param {
    num_output: 2
    weight_filler {
      type: "gaussian"
      std: 0.001
    }
    bias_filler {
      type: "constant"
      value: 0
    }
  }
}
layer {
  name: "routing_192"
  type: "Python"
  bottom: "cls_score_192"
  bottom: "labels"
  top: "routing_192"
  python_param {
    module: "routing_layer.layer"
    layer: "RoutingLayer"
    param_str: "\'routing_idx\': 192"
  }
}
layer {
  name: "loss_cls_192"
  type: "SoftmaxWithLoss"
  bottom: "routing_192"
  bottom: "labels_192"
  top: "cls_loss_192"
  loss_weight: 1
  propagate_down: true
  propagate_down: false
  loss_param {
    ignore_label: -1
    normalize: true
  }
}
layer {
  name: "cls_score_204"
  type: "InnerProduct"
  bottom: "pool5"
  top: "cls_score_204"
  param {
    lr_mult: 1.0
  }
  param {
    lr_mult: 2.0
  }
  inner_product_param {
    num_output: 2
    weight_filler {
      type: "gaussian"
      std: 0.001
    }
    bias_filler {
      type: "constant"
      value: 0
    }
  }
}
layer {
  name: "routing_204"
  type: "Python"
  bottom: "cls_score_204"
  bottom: "labels"
  top: "routing_204"
  python_param {
    module: "routing_layer.layer"
    layer: "RoutingLayer"
    param_str: "\'routing_idx\': 204"
  }
}
layer {
  name: "loss_cls_204"
  type: "SoftmaxWithLoss"
  bottom: "routing_204"
  bottom: "labels_204"
  top: "cls_loss_204"
  loss_weight: 1
  propagate_down: true
  propagate_down: false
  loss_param {
    ignore_label: -1
    normalize: true
  }
}
layer {
  name: "cls_score_214"
  type: "InnerProduct"
  bottom: "pool5"
  top: "cls_score_214"
  param {
    lr_mult: 1.0
  }
  param {
    lr_mult: 2.0
  }
  inner_product_param {
    num_output: 2
    weight_filler {
      type: "gaussian"
      std: 0.001
    }
    bias_filler {
      type: "constant"
      value: 0
    }
  }
}
layer {
  name: "routing_214"
  type: "Python"
  bottom: "cls_score_214"
  bottom: "labels"
  top: "routing_214"
  python_param {
    module: "routing_layer.layer"
    layer: "RoutingLayer"
    param_str: "\'routing_idx\': 214"
  }
}
layer {
  name: "loss_cls_214"
  type: "SoftmaxWithLoss"
  bottom: "routing_214"
  bottom: "labels_214"
  top: "cls_loss_214"
  loss_weight: 1
  propagate_down: true
  propagate_down: false
  loss_param {
    ignore_label: -1
    normalize: true
  }
}
layer {
  name: "cls_score_222"
  type: "InnerProduct"
  bottom: "pool5"
  top: "cls_score_222"
  param {
    lr_mult: 1.0
  }
  param {
    lr_mult: 2.0
  }
  inner_product_param {
    num_output: 5
    weight_filler {
      type: "gaussian"
      std: 0.001
    }
    bias_filler {
      type: "constant"
      value: 0
    }
  }
}
layer {
  name: "routing_222"
  type: "Python"
  bottom: "cls_score_222"
  bottom: "labels"
  top: "routing_222"
  python_param {
    module: "routing_layer.layer"
    layer: "RoutingLayer"
    param_str: "\'routing_idx\': 222"
  }
}
layer {
  name: "loss_cls_222"
  type: "SoftmaxWithLoss"
  bottom: "routing_222"
  bottom: "labels_222"
  top: "cls_loss_222"
  loss_weight: 1
  propagate_down: true
  propagate_down: false
  loss_param {
    ignore_label: -1
    normalize: true
  }
}
layer {
  name: "cls_score_224"
  type: "InnerProduct"
  bottom: "pool5"
  top: "cls_score_224"
  param {
    lr_mult: 1.0
  }
  param {
    lr_mult: 2.0
  }
  inner_product_param {
    num_output: 2
    weight_filler {
      type: "gaussian"
      std: 0.001
    }
    bias_filler {
      type: "constant"
      value: 0
    }
  }
}
layer {
  name: "routing_224"
  type: "Python"
  bottom: "cls_score_224"
  bottom: "labels"
  top: "routing_224"
  python_param {
    module: "routing_layer.layer"
    layer: "RoutingLayer"
    param_str: "\'routing_idx\': 224"
  }
}
layer {
  name: "loss_cls_224"
  type: "SoftmaxWithLoss"
  bottom: "routing_224"
  bottom: "labels_224"
  top: "cls_loss_224"
  loss_weight: 1
  propagate_down: true
  propagate_down: false
  loss_param {
    ignore_label: -1
    normalize: true
  }
}
layer {
  name: "cls_score_225"
  type: "InnerProduct"
  bottom: "pool5"
  top: "cls_score_225"
  param {
    lr_mult: 1.0
  }
  param {
    lr_mult: 2.0
  }
  inner_product_param {
    num_output: 2
    weight_filler {
      type: "gaussian"
      std: 0.001
    }
    bias_filler {
      type: "constant"
      value: 0
    }
  }
}
layer {
  name: "routing_225"
  type: "Python"
  bottom: "cls_score_225"
  bottom: "labels"
  top: "routing_225"
  python_param {
    module: "routing_layer.layer"
    layer: "RoutingLayer"
    param_str: "\'routing_idx\': 225"
  }
}
layer {
  name: "loss_cls_225"
  type: "SoftmaxWithLoss"
  bottom: "routing_225"
  bottom: "labels_225"
  top: "cls_loss_225"
  loss_weight: 1
  propagate_down: true
  propagate_down: false
  loss_param {
    ignore_label: -1
    normalize: true
  }
}
layer {
  name: "cls_score_226"
  type: "InnerProduct"
  bottom: "pool5"
  top: "cls_score_226"
  param {
    lr_mult: 1.0
  }
  param {
    lr_mult: 2.0
  }
  inner_product_param {
    num_output: 3
    weight_filler {
      type: "gaussian"
      std: 0.001
    }
    bias_filler {
      type: "constant"
      value: 0
    }
  }
}
layer {
  name: "routing_226"
  type: "Python"
  bottom: "cls_score_226"
  bottom: "labels"
  top: "routing_226"
  python_param {
    module: "routing_layer.layer"
    layer: "RoutingLayer"
    param_str: "\'routing_idx\': 226"
  }
}
layer {
  name: "loss_cls_226"
  type: "SoftmaxWithLoss"
  bottom: "routing_226"
  bottom: "labels_226"
  top: "cls_loss_226"
  loss_weight: 1
  propagate_down: true
  propagate_down: false
  loss_param {
    ignore_label: -1
    normalize: true
  }
}
layer {
  name: "cls_score_232"
  type: "InnerProduct"
  bottom: "pool5"
  top: "cls_score_232"
  param {
    lr_mult: 1.0
  }
  param {
    lr_mult: 2.0
  }
  inner_product_param {
    num_output: 2
    weight_filler {
      type: "gaussian"
      std: 0.001
    }
    bias_filler {
      type: "constant"
      value: 0
    }
  }
}
layer {
  name: "routing_232"
  type: "Python"
  bottom: "cls_score_232"
  bottom: "labels"
  top: "routing_232"
  python_param {
    module: "routing_layer.layer"
    layer: "RoutingLayer"
    param_str: "\'routing_idx\': 232"
  }
}
layer {
  name: "loss_cls_232"
  type: "SoftmaxWithLoss"
  bottom: "routing_232"
  bottom: "labels_232"
  top: "cls_loss_232"
  loss_weight: 1
  propagate_down: true
  propagate_down: false
  loss_param {
    ignore_label: -1
    normalize: true
  }
}
layer {
  name: "cls_score_236"
  type: "InnerProduct"
  bottom: "pool5"
  top: "cls_score_236"
  param {
    lr_mult: 1.0
  }
  param {
    lr_mult: 2.0
  }
  inner_product_param {
    num_output: 2
    weight_filler {
      type: "gaussian"
      std: 0.001
    }
    bias_filler {
      type: "constant"
      value: 0
    }
  }
}
layer {
  name: "routing_236"
  type: "Python"
  bottom: "cls_score_236"
  bottom: "labels"
  top: "routing_236"
  python_param {
    module: "routing_layer.layer"
    layer: "RoutingLayer"
    param_str: "\'routing_idx\': 236"
  }
}
layer {
  name: "loss_cls_236"
  type: "SoftmaxWithLoss"
  bottom: "routing_236"
  bottom: "labels_236"
  top: "cls_loss_236"
  loss_weight: 1
  propagate_down: true
  propagate_down: false
  loss_param {
    ignore_label: -1
    normalize: true
  }
}
layer {
  name: "cls_score_242"
  type: "InnerProduct"
  bottom: "pool5"
  top: "cls_score_242"
  param {
    lr_mult: 1.0
  }
  param {
    lr_mult: 2.0
  }
  inner_product_param {
    num_output: 4
    weight_filler {
      type: "gaussian"
      std: 0.001
    }
    bias_filler {
      type: "constant"
      value: 0
    }
  }
}
layer {
  name: "routing_242"
  type: "Python"
  bottom: "cls_score_242"
  bottom: "labels"
  top: "routing_242"
  python_param {
    module: "routing_layer.layer"
    layer: "RoutingLayer"
    param_str: "\'routing_idx\': 242"
  }
}
layer {
  name: "loss_cls_242"
  type: "SoftmaxWithLoss"
  bottom: "routing_242"
  bottom: "labels_242"
  top: "cls_loss_242"
  loss_weight: 1
  propagate_down: true
  propagate_down: false
  loss_param {
    ignore_label: -1
    normalize: true
  }
}
layer {
  name: "cls_score_246"
  type: "InnerProduct"
  bottom: "pool5"
  top: "cls_score_246"
  param {
    lr_mult: 1.0
  }
  param {
    lr_mult: 2.0
  }
  inner_product_param {
    num_output: 2
    weight_filler {
      type: "gaussian"
      std: 0.001
    }
    bias_filler {
      type: "constant"
      value: 0
    }
  }
}
layer {
  name: "routing_246"
  type: "Python"
  bottom: "cls_score_246"
  bottom: "labels"
  top: "routing_246"
  python_param {
    module: "routing_layer.layer"
    layer: "RoutingLayer"
    param_str: "\'routing_idx\': 246"
  }
}
layer {
  name: "loss_cls_246"
  type: "SoftmaxWithLoss"
  bottom: "routing_246"
  bottom: "labels_246"
  top: "cls_loss_246"
  loss_weight: 1
  propagate_down: true
  propagate_down: false
  loss_param {
    ignore_label: -1
    normalize: true
  }
}
layer {
  name: "cls_score_247"
  type: "InnerProduct"
  bottom: "pool5"
  top: "cls_score_247"
  param {
    lr_mult: 1.0
  }
  param {
    lr_mult: 2.0
  }
  inner_product_param {
    num_output: 2
    weight_filler {
      type: "gaussian"
      std: 0.001
    }
    bias_filler {
      type: "constant"
      value: 0
    }
  }
}
layer {
  name: "routing_247"
  type: "Python"
  bottom: "cls_score_247"
  bottom: "labels"
  top: "routing_247"
  python_param {
    module: "routing_layer.layer"
    layer: "RoutingLayer"
    param_str: "\'routing_idx\': 247"
  }
}
layer {
  name: "loss_cls_247"
  type: "SoftmaxWithLoss"
  bottom: "routing_247"
  bottom: "labels_247"
  top: "cls_loss_247"
  loss_weight: 1
  propagate_down: true
  propagate_down: false
  loss_param {
    ignore_label: -1
    normalize: true
  }
}
layer {
  name: "cls_score_248"
  type: "InnerProduct"
  bottom: "pool5"
  top: "cls_score_248"
  param {
    lr_mult: 1.0
  }
  param {
    lr_mult: 2.0
  }
  inner_product_param {
    num_output: 2
    weight_filler {
      type: "gaussian"
      std: 0.001
    }
    bias_filler {
      type: "constant"
      value: 0
    }
  }
}
layer {
  name: "routing_248"
  type: "Python"
  bottom: "cls_score_248"
  bottom: "labels"
  top: "routing_248"
  python_param {
    module: "routing_layer.layer"
    layer: "RoutingLayer"
    param_str: "\'routing_idx\': 248"
  }
}
layer {
  name: "loss_cls_248"
  type: "SoftmaxWithLoss"
  bottom: "routing_248"
  bottom: "labels_248"
  top: "cls_loss_248"
  loss_weight: 1
  propagate_down: true
  propagate_down: false
  loss_param {
    ignore_label: -1
    normalize: true
  }
}
layer {
  name: "cls_score_250"
  type: "InnerProduct"
  bottom: "pool5"
  top: "cls_score_250"
  param {
    lr_mult: 1.0
  }
  param {
    lr_mult: 2.0
  }
  inner_product_param {
    num_output: 2
    weight_filler {
      type: "gaussian"
      std: 0.001
    }
    bias_filler {
      type: "constant"
      value: 0
    }
  }
}
layer {
  name: "routing_250"
  type: "Python"
  bottom: "cls_score_250"
  bottom: "labels"
  top: "routing_250"
  python_param {
    module: "routing_layer.layer"
    layer: "RoutingLayer"
    param_str: "\'routing_idx\': 250"
  }
}
layer {
  name: "loss_cls_250"
  type: "SoftmaxWithLoss"
  bottom: "routing_250"
  bottom: "labels_250"
  top: "cls_loss_250"
  loss_weight: 1
  propagate_down: true
  propagate_down: false
  loss_param {
    ignore_label: -1
    normalize: true
  }
}
layer {
  name: "cls_score_253"
  type: "InnerProduct"
  bottom: "pool5"
  top: "cls_score_253"
  param {
    lr_mult: 1.0
  }
  param {
    lr_mult: 2.0
  }
  inner_product_param {
    num_output: 2
    weight_filler {
      type: "gaussian"
      std: 0.001
    }
    bias_filler {
      type: "constant"
      value: 0
    }
  }
}
layer {
  name: "routing_253"
  type: "Python"
  bottom: "cls_score_253"
  bottom: "labels"
  top: "routing_253"
  python_param {
    module: "routing_layer.layer"
    layer: "RoutingLayer"
    param_str: "\'routing_idx\': 253"
  }
}
layer {
  name: "loss_cls_253"
  type: "SoftmaxWithLoss"
  bottom: "routing_253"
  bottom: "labels_253"
  top: "cls_loss_253"
  loss_weight: 1
  propagate_down: true
  propagate_down: false
  loss_param {
    ignore_label: -1
    normalize: true
  }
}
layer {
  name: "cls_score_254"
  type: "InnerProduct"
  bottom: "pool5"
  top: "cls_score_254"
  param {
    lr_mult: 1.0
  }
  param {
    lr_mult: 2.0
  }
  inner_product_param {
    num_output: 4
    weight_filler {
      type: "gaussian"
      std: 0.001
    }
    bias_filler {
      type: "constant"
      value: 0
    }
  }
}
layer {
  name: "routing_254"
  type: "Python"
  bottom: "cls_score_254"
  bottom: "labels"
  top: "routing_254"
  python_param {
    module: "routing_layer.layer"
    layer: "RoutingLayer"
    param_str: "\'routing_idx\': 254"
  }
}
layer {
  name: "loss_cls_254"
  type: "SoftmaxWithLoss"
  bottom: "routing_254"
  bottom: "labels_254"
  top: "cls_loss_254"
  loss_weight: 1
  propagate_down: true
  propagate_down: false
  loss_param {
    ignore_label: -1
    normalize: true
  }
}
layer {
  name: "cls_score_273"
  type: "InnerProduct"
  bottom: "pool5"
  top: "cls_score_273"
  param {
    lr_mult: 1.0
  }
  param {
    lr_mult: 2.0
  }
  inner_product_param {
    num_output: 2
    weight_filler {
      type: "gaussian"
      std: 0.001
    }
    bias_filler {
      type: "constant"
      value: 0
    }
  }
}
layer {
  name: "routing_273"
  type: "Python"
  bottom: "cls_score_273"
  bottom: "labels"
  top: "routing_273"
  python_param {
    module: "routing_layer.layer"
    layer: "RoutingLayer"
    param_str: "\'routing_idx\': 273"
  }
}
layer {
  name: "loss_cls_273"
  type: "SoftmaxWithLoss"
  bottom: "routing_273"
  bottom: "labels_273"
  top: "cls_loss_273"
  loss_weight: 1
  propagate_down: true
  propagate_down: false
  loss_param {
    ignore_label: -1
    normalize: true
  }
}
layer {
  name: "cls_score_279"
  type: "InnerProduct"
  bottom: "pool5"
  top: "cls_score_279"
  param {
    lr_mult: 1.0
  }
  param {
    lr_mult: 2.0
  }
  inner_product_param {
    num_output: 3
    weight_filler {
      type: "gaussian"
      std: 0.001
    }
    bias_filler {
      type: "constant"
      value: 0
    }
  }
}
layer {
  name: "routing_279"
  type: "Python"
  bottom: "cls_score_279"
  bottom: "labels"
  top: "routing_279"
  python_param {
    module: "routing_layer.layer"
    layer: "RoutingLayer"
    param_str: "\'routing_idx\': 279"
  }
}
layer {
  name: "loss_cls_279"
  type: "SoftmaxWithLoss"
  bottom: "routing_279"
  bottom: "labels_279"
  top: "cls_loss_279"
  loss_weight: 1
  propagate_down: true
  propagate_down: false
  loss_param {
    ignore_label: -1
    normalize: true
  }
}
